97wr_evalnet.pt (torch, 406714 bytes, 6 tensors)

conv.weight f4 [128, 1, 4, 4]
0	0x3ecd2274	0.40065348
1	0x3dc6d9fe	0.097095475
2	0xbe20bf66	-0.15698013
3	0xbdce8837	-0.10084575
4	0xbe8c0839	-0.27350023
5	0x3d8ae4c4	0.06781915
6	0xbe09973f	-0.13436602
7	0xbd46de18	-0.04855165
8	0x3ed726e1	0.4202185
9	0xbd0dc080	-0.03460741
10	0x3d1bfa78	0.038080662
11	0xbdd2e246	-0.102970645
12	0xbe9eb52b	-0.30997595
13	0xbe1e5a49	-0.15464129
14	0x3e3e385c	0.18576187
15	0x3d955609	0.072918005
16	0xbe9ead38	-0.3099153
17	0x3ab1039b	0.0013505103
18	0xbd80b7a1	-0.062850244
19	0x3d588125	0.052857537
20	0xbe8c6d0d	-0.2742695
21	0x3d75ea5c	0.060037956
22	0x3e13c78b	0.14431588
23	0xbe27ef8f	-0.16399978
24	0xbd7f8896	-0.062386118
25	0xbe7a3187	-0.24432956
26	0x3e1b7cee	0.15184376
27	0x3e4a8922	0.19778875
28	0x3e873d86	0.26414126
29	0xbeac5bb9	-0.3366373
30	0xbe11ef3a	-0.14251414
31	0xbe030598	-0.12795103
32	0xbe26d2c0	-0.16291332
33	0xbbee3f67	-0.0072707417
34	0xbea19553	-0.31559238
35	0x3e06b028	0.13153136
36	0x3dedc58e	0.11609946
37	0x3e291394	0.16511375
38	0x3d3e6b1e	0.046488874
39	0xbe66189f	-0.2247033
40	0x3da89ad7	0.08232658
41	0xbe02cafc	-0.12772745
42	0x3daedc78	0.08538145
43	0x3e28431a	0.16431847
44	0xbebc3870	-0.36761808
45	0x3e4881c4	0.19580752
46	0xbc4bd55d	-0.0124410065
47	0x3e8109ca	0.2520278
48	0xbd02a73d	-0.031897772
49	0xbe053274	-0.13007528
50	0xbe2fca1b	-0.17166941
51	0xbd2fed05	-0.04295065
52	0x3cc7e935	0.024403194
53	0x3dd0cc80	0.10195255
54	0xbded3dac	-0.115840286
55	0xbe716d0e	-0.23576757
56	0xbd1c8dad	-0.03822105
57	0x3c809ec1	0.0157007
58	0x3cc7ec55	0.024404684
59	0xbe429129	-0.19000687
60	0x3ee881a6	0.45411414
61	0x3ee78424	0.45218003
62	0x3ed6ed0c	0.41977727
63	0xbe1aac09	-0.15104689
64	0xbbfb5302	-0.0076698074
65	0xbd7e8536	-0.06213876
66	0x3e78da80	0.24302101
67	0x3ea7a198	0.32740474
68	0x3e848e28	0.25889707
69	0xbe4da09d	-0.200808
70	0x3e7fcebf	0.24981211
71	0x3dcf9c9e	0.10137294
72	0xbd5faf3c	-0.054610476
73	0xbe908968	-0.28229833
74	0xbdfecc99	-0.12441368
75	0x3e0eb924	0.13937813
76	0x3ea82bdd	0.32845965
77	0x3d5bd471	0.053669397
78	0x3e8149ab	0.25251517
79	0x3d369293	0.044573378
80	0x3e117127	0.1420332
81	0x3daf5cdb	0.08562633
82	0xbe88fe95	-0.2675673
83	0x3da44312	0.08020605
84	0x3ebf696a	0.37385112
85	0xbe12c756	-0.14333853
86	0x3e15382c	0.14572209
87	0x3e8039d0	0.25044107
88	0x3e5a6509	0.21327604
89	0xbdbb7b44	-0.091543704
90	0xbe301273	-0.17194538
91	0x3e11e233	0.14246444
92	0x3e836acc	0.25667417
93	0x3be704aa	0.0070501165
94	0xbdd921cb	-0.106021486
95	0xbee96d66	-0.45591277
96	0xbeae9871	-0.3410068
97	0xbd693b9c	-0.056941614
98	0xbe4a0bda	-0.19731084
99	0xbe72cb27	-0.23710309
100	0xbdf9be42	-0.12194492
101	0x3e41fdf4	0.18944532
102	0x3bf2ba40	0.0074074566
103	0xbdda1197	-0.10647886
104	0x3e17c6d3	0.14821939
105	0xbeb5c5c9	-0.3550246
106	0x3dca5240	0.09878969
107	0xbe2d02b5	-0.16895564
108	0xbdfeaded	-0.124355175
109	0x3e680ce7	0.22661172
110	0x3ebc67ba	0.36797887
111	0xbe93e719	-0.2888725
112	0xbe96ab78	-0.29427695
113	0x3e940f32	0.28917843
114	0xbd903d97	-0.07042997
115	0xbc88c81a	-0.016696978
116	0x3e17bc8d	0.1481802
117	0xbde9d441	-0.11417437
118	0xbe146e20	-0.14495134
119	0x3e585328	0.21125472
120	0xbeac5890	-0.33661318
121	0x3e16663d	0.14687438
122	0xbcefa76f	-0.029254643
123	0xbdfb4fad	-0.12271056
124	0xbc49a0d7	-0.012306414
125	0x3c70a825	0.014688526
126	0xbefc16e1	-0.49236205
127	0xbdf22577	-0.11823552
128	0x3d8b0a11	0.067890294
129	0xbe22aedd	-0.15887018
130	0xbd48ad71	-0.04899353
131	0x3e3ca451	0.18422057
132	0xbd136e5f	-0.03599393
133	0xbd03ac63	-0.032146823
134	0x3d74100c	0.059585616
135	0x3ec401ec	0.38282716
136	0x3dc23ca0	0.094842196
137	0xbe81bac4	-0.25337803
138	0x3d238d9e	0.03992998
139	0x3ead24a6	0.33817023
140	0xbe2d6a5d	-0.16935106
141	0x3e0f6641	0.1400385
142	0x3e66b26b	0.22528999
143	0xbdde468d	-0.108533
144	0xbb94f5cc	-0.004545903
145	0x3d4e1169	0.050309572
146	0xbe5bb161	-0.21454383
147	0x3cdfc8d7	0.027317448
148	0x3cbc09b1	0.02295384
149	0xbe5c10bc	-0.21490759
150	0xbda5eb0e	-0.08101474
151	0xbe269ebb	-0.16271488
152	0x3e225609	0.15853132
153	0x3df85ece	0.121274576
154	0x3e47a4e1	0.1949649
155	0x3e057316	0.13032183
156	0x3e19a42f	0.15004037
157	0xbe256949	-0.16153444
158	0xbe9cc8c0	-0.3062191
159	0x3eaad6e4	0.33367074
160	0x3e12d729	0.1433989
161	0xbdd7ed7b	-0.10543343
162	0x3db3e15b	0.087832175
163	0x3cd09a64	0.025464244
164	0x3d500a1e	0.0507909
165	0x3d976c83	0.07393744
166	0x3d55be36	0.052183352
167	0x3b84b37a	0.0040497156
168	0x3e9fd435	0.3121659
169	0x3d20d606	0.03926661
170	0x3d70c95a	0.058785774
171	0x3dd3c6b5	0.10340635
172	0xbef61f7e	-0.48070902
173	0x3e4dddcc	0.2010414
174	0xbd7d4a89	-0.06183866
175	0x3d8f2825	0.06990079
176	0x3dad00df	0.08447432
177	0xbdab312a	-0.08358987
178	0x3e50d9b0	0.20395541
179	0xbdba706e	-0.091034755
180	0xbd2d1502	-0.042256363
181	0x3e02c249	0.12769426
182	0x3e4a6398	0.19764555
183	0xbe2b4630	-0.16725993
184	0xbe8cb918	-0.27484965
185	0xbe2eb651	-0.17061736
186	0x3e30e97a	0.17276564
187	0xbe3f3228	-0.18671477
188	0xbcf40285	-0.029786358
189	0xbe187c83	-0.14891247
190	0x3d2969e5	0.041360755
191	0x3f030577	0.51180214
192	0xbe1e8997	-0.15482174
193	0x3cb7819d	0.022400672
194	0x3e5ce32a	0.21571031
195	0x3e2f7df9	0.17137899
196	0xbcacc1dd	-0.021088535
197	0x3e6105bc	0.21974844
198	0xbd19bbb2	-0.037532516
199	0xbde2c1f1	-0.11072148
200	0x3d8c19e3	0.06840875
201	0x3d85fd2f	0.065424316
202	0xbda73981	-0.08165265
203	0x3db8c201	0.09021378
204	0x3e91b547	0.28458616
205	0xbe3a0aa5	-0.18168123
206	0x3ee0cc10	0.43905687
207	0xbe4bb3bc	-0.19892782
208	0xbe5f3a68	-0.21799624
209	0xbeba75d1	-0.36418012
210	0x3d194c44	0.03742625
211	0x3e0dc9fa	0.13846579
212	0x3efd417c	0.49464023
213	0x3e378b04	0.17924124
214	0xbeaf9666	-0.34294432
215	0xbe8c77f6	-0.27435273
216	0xbd80e1bd	-0.06293056
217	0xbe16597a	-0.1468257
218	0x3dd93456	0.106056854
219	0xbe63c2e2	-0.2224231
220	0xbdfca1d9	-0.123355575
221	0xbd81d15e	-0.06338762
222	0x3d2600e4	0.040528193
223	0xbe3d2573	-0.18471317
224	0x3e879e33	0.26487884
225	0xbd25c7ab	-0.04047362
226	0x3d5c1948	0.053735048
227	0x3e979fb6	0.29614037
228	0xbcb71297	-0.022347732
229	0xbdb11feb	-0.08648666
230	0xbcdbfe25	-0.026854584
231	0x3d4b4dd5	0.049634773
232	0x3e0e4109	0.13891996
233	0x3e2a733e	0.16645524
234	0x3df2c83c	0.11854598
235	0x3e9819f2	0.29707295
236	0xbcb8ffd6	-0.02258293
237	0x3e9dcdff	0.30821225
238	0x3e9b9d0a	0.3039325
239	0x3e852d81	0.2601128
240	0xbdfa7903	-0.122301124
241	0xbd9b917b	-0.075961076
242	0x3ebfec34	0.37484896
243	0x3e81baa2	0.25337702
244	0x3ebba3de	0.36648458
245	0x3e824b05	0.2544786
246	0xbea9853e	-0.33109468
247	0x3d466128	0.0484325
248	0x3e01f76d	0.12692042
249	0x3dd5ddc8	0.10442692
250	0xbe07acf1	-0.13249566
251	0xbe78ab0a	-0.24283996
252	0x3ea29ffe	0.3176269
253	0xbe18b46e	-0.14912578
254	0x3e33e4d4	0.1756776
255	0x3ea2ab43	0.31771287

conv.bias f4 [128]
0	0xbde98eb2	-0.1140417
1	0x3e080d49	0.13286318
2	0x3e4e77fe	0.20162961
3	0xbe4ad70d	-0.19808598
4	0xb9804156	-0.00024462742
5	0x3bbb0529	0.0057074022
6	0xbc9ea264	-0.019364543
7	0xba083b7f	-0.0005196854
8	0x3d9ba7a3	0.076003335
9	0x3e0b1930	0.13583827
10	0xbe20cd07	-0.15703212
11	0xbe4bf886	-0.19919023
12	0xbd77ed3b	-0.060528975
13	0xbe0952e4	-0.13410527
14	0x3e31837c	0.17335314
15	0xbe570ac0	-0.21000195
16	0x3e8f1731	0.2794738
17	0xbe680a94	-0.22660285
18	0xbe70d8d4	-0.23520213
19	0x3e5d9c2b	0.21641605
20	0x3cfd9ec9	0.030959504
21	0x3e027df7	0.12743364
22	0xbf0a3a56	-0.53995264
23	0xbe2415ac	-0.16023892
24	0xbe15a40a	-0.14613357
25	0x3d85855d	0.06519578
26	0xbeb019cd	-0.34394684
27	0xbe47a684	-0.19497114
28	0xbe46a236	-0.19397816
29	0x3e413c66	0.18870696
30	0x3e502b66	0.20329055
31	0x3d156bcd	0.03647976
32	0x3c100b7c	0.008791801
33	0xbe81c4d2	-0.25345474
34	0xbdb8f921	-0.090318926
35	0x3c87136d	0.016488755
36	0xbe9c8933	-0.30573425
37	0xbe8e8d51	-0.2784219
38	0xbe1f8de0	-0.15581465
39	0xbef2d55c	-0.47428405
40	0xbe8e18ae	-0.27753204
41	0xbe00a113	-0.12561445
42	0xbdb1d9d9	-0.08684129
43	0x3de71f8d	0.11285315
44	0x3e7acf1e	0.24493071
45	0x3e6dc708	0.23220456
46	0xbe8f9f33	-0.28051147
47	0x3df92fa7	0.12167292
48	0xbebd4c58	-0.36972308
49	0xbe9a5387	-0.3014185
50	0xbe078d4e	-0.13237497
51	0xbe61a32a	-0.22034898
52	0xbe18acbb	-0.14909641
53	0x3e044c45	0.1291972
54	0xbe55cd62	-0.20879129
55	0x3e500f5e	0.20318362
56	0x3e69b130	0.22821498
57	0x3e34d27d	0.1765842
58	0xbe66082c	-0.22464055
59	0xbc0d2a78	-0.008616082
60	0x3d9c25fe	0.07624434
61	0xbd869508	-0.06571394
62	0xbe537822	-0.20651296
63	0x3d1631b5	0.036668498
64	0xbe7279de	-0.23679301
65	0xbe1570d8	-0.14593828
66	0x3d65e113	0.05612285
67	0xbe9aee3e	-0.3025989
68	0x3e956ead	0.29186
69	0x3d639177	0.055558648
70	0xbd6c3fc4	-0.057678
71	0xbe65dedc	-0.22448295
72	0x3d60facf	0.05492669
73	0xbc2a4a9f	-0.010393768
74	0xbe8002ff	-0.25002286
75	0xbe718716	-0.23586687
76	0xbc59584d	-0.013265681
77	0xbe3e26fb	-0.18569557
78	0xbe6cd156	-0.2312673
79	0x3e50089e	0.20315787
80	0xbe82f06d	-0.25574055
81	0x3e04a2b6	0.12952694
82	0x3e7bb395	0.24580224
83	0xbce527d9	-0.027973102
84	0xbc676e66	-0.014125442
85	0x3d6b4c46	0.057445787
86	0xbe69ec7a	-0.22844115
87	0x3e8dcade	0.27693838
88	0x3db61a79	0.08891768
89	0xbe69ed72	-0.22844484
90	0xbc4c2b7e	-0.012461541
91	0xbd20bbf4	-0.039241746
92	0x3d22e788	0.039771587
93	0xbdddb40a	-0.10825355
94	0xbe26f6cb	-0.16305082
95	0x3e74a182	0.23889735
96	0x3e29413c	0.16528791
97	0x3e682c69	0.22673191
98	0x3e76e0dd	0.24109216
99	0x3d2e54ee	0.042561464
100	0xbe481a75	-0.19541343
101	0x3e22a2d4	0.15882427
102	0x3d47d2b1	0.048784915
103	0x3e3946fa	0.18093482
104	0x3e0d9b4c	0.13828772
105	0xbe263dc4	-0.16234499
106	0x3e6f170a	0.23348632
107	0xbe553d1d	-0.20824094
108	0xbe4bd015	-0.19903596
109	0x3d8bcee6	0.06826572
110	0x3e6c1634	0.23055345
111	0xbe68ad58	-0.22722375
112	0x3e46fb20	0.19431734
113	0xbcc04a59	-0.023472952
114	0xbe9a2bb3	-0.30111465
115	0xbbdc4c51	-0.006722965
116	0xbe9fc1a9	-0.31202438
117	0x3ce9cc2c	0.02853974
118	0x3ddd9825	0.10820035
119	0xbe6549ec	-0.2239148
120	0x3e7acbb8	0.24491775
121	0xbe63ed47	-0.22258483
122	0x3e2be1ba	0.16785327
123	0xbdf04c29	-0.117332764
124	0x3db40da9	0.08791668
125	0xbe97b833	-0.2963272
126	0xbe57832b	-0.2104613
127	0x3e3a5c77	0.18199335

fc1.weight f4 [64, 1536]
0	0xbd8336d4	-0.06406942
1	0xbd24e35b	-0.040255886
2	0xbc4ef3f2	-0.012631403
3	0xbd3887a0	-0.045051217
4	0x3b5d84c6	0.0033801063
5	0x3c0c3e3b	0.008559759
6	0x3ca0d948	0.019634858
7	0x3c38bd57	0.011275611
8	0xbbe2f1b6	-0.006925787
9	0x3c20794e	0.009794546
10	0xbc9efe43	-0.01940835
11	0xbcdb81dc	-0.02679532
12	0xbc3ceee1	-0.011531563
13	0xbd197934	-0.037469104
14	0x3d368b52	0.04456646
15	0x3d14e6f9	0.036353085
16	0x3cba86bd	0.022769326
17	0x3add9fc6	0.0016908578
18	0x3a8094cb	0.0009809969
19	0x3d012c5d	0.03153645
20	0x3cf81be1	0.030286731
21	0xbc63b7ed	-0.013898832
22	0x3cc97ecd	0.024596596
23	0x3cc75db9	0.024336683
24	0xbcf4f95a	-0.029904056
25	0xbc4e4249	-0.012589046
26	0x3d2a6592	0.04160077
27	0xbc35f3d2	-0.011105495
28	0xbbc34fa7	-0.005960423
29	0xbc61bd22	-0.013778003
30	0x3d214c60	0.039379478
31	0x3c71a5df	0.014749019
32	0xbd712716	-0.058875166
33	0x3cbc1397	0.02295856
34	0xbcb90d67	-0.022589399
35	0xbd32665e	-0.043554656
36	0x3afe71ef	0.0019412617
37	0xbc1301c7	-0.008972592
38	0xbd230850	-0.03980285
39	0xbd04995c	-0.032372817
40	0x3ca011a3	0.01953966
41	0xbb37b954	-0.0028034048
42	0xbbdbbda9	-0.006705959
43	0x3c8b396f	0.01699516
44	0x3c016712	0.007898109
45	0xbca4d86c	-0.02012273
46	0x3b2ace17	0.002606278
47	0x3d87a53d	0.066233136
48	0xbccb6da3	-0.024832552
49	0x3cab011f	0.020874558
50	0xbc719fde	-0.014747588
51	0xbc62591d	-0.013815192
52	0x3d8bde7e	0.068295464
53	0xbcdcd290	-0.026955873
54	0x3d886b32	0.06661071
55	0xbd107628	-0.035268933
56	0x3d369c59	0.0445827
57	0xbd8e0ecd	-0.06936417
58	0x3d16bab8	0.036799163
59	0x3aa46f00	0.0012545288
60	0x3c9402f8	0.018067822
61	0x3d1abb4f	0.037776288
62	0xbcabd011	-0.020973237
63	0x3c7423a7	0.014901078
64	0x3cc7d4cd	0.024393464
65	0xbcbdf62b	-0.023188671
66	0x3c8939a9	0.016751127
67	0x3bb3055b	0.005463285
68	0xbccc76fa	-0.024959076
69	0x3d696ade	0.056986682
70	0x3ccb8cc3	0.024847394
71	0x3cd36c4a	0.025808472
72	0xbcf402de	-0.029786523
73	0x3d5a3e8d	0.05328231
74	0xbcf54475	-0.02993987
75	0xbbd8a22d	-0.0066111297
76	0x3ca59018	0.02021031
77	0x3bc7ae6d	0.006093791
78	0x3b8494bf	0.004046052
79	0xbc923077	-0.017845375
80	0xba604517	-0.0008555217
81	0xbbef4ab8	-0.0073026083
82	0x3ca1674c	0.019702576
83	0x3cc1bc87	0.023649467
84	0xbe0c51e0	-0.13703108
85	0x3d3c7b73	0.046016168
86	0xba5bc629	-0.0008383715
87	0x3b0efb91	0.0021817426
88	0x3d1ba201	0.037996296
89	0x3c74924c	0.014927458
90	0x3b2ec574	0.0026667984
91	0xbc47f926	-0.012205398
92	0x3d6dd319	0.058062647
93	0x3b09fcdc	0.0021055257
94	0x3cc038c4	0.023464568
95	0xbd243ea8	-0.040098816
96	0xbd5079b3	-0.05089731
97	0x3d581d33	0.05276222
98	0xbd03b3e6	-0.032153986
99	0xbd5ab1e0	-0.05339229
100	0xbd2acaa2	-0.041697152
101	0xbafc98d1	-0.0019271617
102	0xbd0fb295	-0.03508242
103	0xbd626818	-0.055275053
104	0x3cbd2e25	0.023093292
105	0xbc447ea4	-0.011993084
106	0xbba6b809	-0.0050878567
107	0xbd662f7d	-0.056197632
108	0x3d37b517	0.044850435
109	0xbc9b16c9	-0.018931763
110	0xbbea82c7	-0.007156703
111	0xbd74db30	-0.059779346
112	0x3afed73d	0.0019442808
113	0x3cb8c971	0.022556992
114	0x3cccd661	0.025004568
115	0xbc709020	-0.0146828
116	0x3c87923f	0.016549228
117	0x3d84d23e	0.06485413
118	0xbc89e2de	-0.016831812
119	0xbbf9bbcc	-0.007621264
120	0x3d3f02a0	0.046633363
121	0x3ba4eb6d	0.0050329478
122	0xbdc5f86f	-0.096665256
123	0xbd7dcd79	-0.061963532
124	0x3d59b00b	0.053146403
125	0xbdbb1821	-0.091354616
126	0xbc1d15a8	-0.009587683
127	0xbdbd50d3	-0.092439316
128	0x3d2a3946	0.041558526
129	0xbd5e3de6	-0.05425825
130	0x3cc1156a	0.023569781
131	0xbcb22989	-0.021748321
132	0xbcc07009	-0.023490923
133	0xbd0c9cfb	-0.034329396
134	0xbdb35c04	-0.08757785
135	0x3cacb20e	0.021080997
136	0xbd243bf3	-0.040096235
137	0xbd30e1cc	-0.043184087
138	0x3d07ddb8	0.03317043
139	0x3cf6cbc8	0.030126467
140	0x3c2fb3cc	0.010724019
141	0x3cfd9908	0.03095676
142	0xbd1e6525	-0.038670678
143	0x3c7bc30a	0.015366325
144	0x3d33dad4	0.043909863
145	0xbc484087	-0.012222416
146	0xbc81356d	-0.015772546
147	0xbd09f330	-0.033679187
148	0xbb183c77	-0.00232294
149	0x3c6b7dbd	0.01437324
150	0xba62d29e	-0.00086526
151	0xbd3891dc	-0.045060977
152	0xbd1d1d11	-0.038357798
153	0xbd3dae9f	-0.04630911
154	0x3d14fbb9	0.036372874
155	0xbc5acd8c	-0.01335467
156	0x3dbec728	0.0931533
157	0x3a853c42	0.0010165053
158	0x3d5dbc4e	0.05413466
159	0x3d722383	0.059115898
160	0x3d437d01	0.047726635
161	0x3ac84365	0.0015278874
162	0x3c21131c	0.009831216
163	0x3c74d645	0.014943664
164	0xbc205d69	-0.009787896
165	0x3c5c8df2	0.013461577
166	0x3d2efab6	0.042719565
167	0x3dc74dcd	0.09731636
168	0xbcbd2613	-0.023089444
169	0xbd84cce2	-0.06484391
170	0xbd1e9245	-0.038713712
171	0x3ce11d5f	0.027479826
172	0xbcde7f34	-0.027160265
173	0xbd3b46f9	-0.04572198
174	0xbd3635a8	-0.044484764
175	0xbd1ea9e1	-0.038736228
176	0x3cbdad5b	0.023153951
177	0xbcdef4fb	-0.027216425
178	0x3c2de468	0.010613538
179	0x3c8bfcaa	0.017088253
180	0x3cef2200	0.029191017
181	0x3c631c10	0.013861671
182	0x3c4cfd28	0.012511529
183	0xbca2dcc0	-0.019880652
184	0xbca3e43e	-0.020006295
185	0x3d04549a	0.032307245
186	0xbc14178f	-0.00903882
187	0xbc19f087	-0.009395725
188	0xbd0680fa	-0.032837845
189	0x3c99484f	0.018711237
190	0xbcdb2403	-0.02675057
191	0x3b1df724	0.0024103606
192	0x3bf2190b	0.0073882393
193	0x3ced1398	0.028940007
194	0x3ca6876b	0.020328244
195	0x3d860d3d	0.06545494
196	0xbd1a2662	-0.03763426
197	0xbbbcd074	-0.0057621542
198	0xbb3edf11	-0.0029124657
199	0x3d2e5ce8	0.04256907
200	0xbc841026	-0.016120981
201	0x3c7b968d	0.015355718
202	0x3d61ee50	0.055158913
203	0x3d575224	0.05256857
204	0x3caa0acc	0.020757101
205	0xbc93d6a9	-0.018046694
206	0xbd8add13	-0.06780448
207	0x3c377401	0.011197091
208	0xbbf289ad	-0.007401666
209	0x3d3e7f35	0.046508033
210	0xbd56bd31	-0.05242652
211	0xbc21b6bb	-0.0098702265
212	0x3b0d1603	0.0021528013
213	0xbc2e2889	-0.0106297815
214	0x3a1cef0a	0.00059865473
215	0xbd8edcec	-0.06975731
216	0x3c8431aa	0.016136963
217	0xbda24a3e	-0.07924317
218	0xbd1f1246	-0.038835786
219	0xbd29413d	-0.04132198
220	0x3d68a94d	0.056802083
221	0xbc148570	-0.009065017
222	0x3c06056a	0.008180002
223	0xbe019ddc	-0.12657875
224	0x3d3aac33	0.04557438
225	0xbb0eabc9	-0.0021769872
226	0xbda6514e	-0.081209764
227	0xbaef0ab2	-0.001823744
228	0x3c9b9eb7	0.01899658
229	0xbceaf90a	-0.028683204
230	0x3d174820	0.036934018
231	0xbc56a8d2	-0.013101773
232	0x3c908d8e	0.017645624
233	0xbcd7ce34	-0.026343442
234	0x3b88d2c0	0.004175514
235	0x3d7043f1	0.058658544
236	0xbac95fbb	-0.0015363613
237	0x3ba61756	0.0050687
238	0x3d0f7a37	0.035028663
239	0xbc297992	-0.010343926
240	0x3d2062cd	0.039156724
241	0x3c74d850	0.014944151
242	0xbbbb86bf	-0.00572285
243	0xb89584b5	-7.129592e-05
244	0x3d8bf349	0.06833512
245	0xbc4ac07c	-0.012374993
246	0xbc88af0b	-0.01668503
247	0xbd1cbf4d	-0.038268376
248	0x3c9a899a	0.018864442
249	0xbd5e17d2	-0.054221936
250	0x3bd8f446	0.0066209165
251	0xbd2097a4	-0.039207116
252	0xbce69495	-0.028147021
253	0x3c1ab577	0.009442679
254	0x3b12742d	0.0022347078
255	0xbad07b23	-0.0015905838

fc1.bias f4 [64]
0	0x3b70bfad	0.0036735341
1	0xbd0a8ed0	-0.033827603
2	0xbcbb9080	-0.022896051
3	0xbcab819f	-0.020935832
4	0xbc74a17e	-0.014931081
5	0xbcd8bebb	-0.026458135
6	0xbbdda451	-0.006763973
7	0x3ba2e854	0.0049715433
8	0xbbf0f772	-0.0073537165
9	0xbd887b77	-0.06664174
10	0x3c7c67cc	0.0154056065
11	0x3cfe43e8	0.03103824
12	0x3c9e8320	0.019349635
13	0xbcdb6978	-0.02678369
14	0xbd3776c5	-0.044791
15	0xbc2bb939	-0.010481172
16	0xbd3f7880	-0.046745777
17	0xbcd2d07e	-0.025734182
18	0xbcdabd72	-0.026701663
19	0xbca3c8e8	-0.01999326
20	0xbcc4df02	-0.02403212
21	0xbcba80d2	-0.022766504
22	0xbb14b7f3	-0.002269265
23	0x3d05650c	0.03256707
24	0xbc832dcf	-0.016013054
25	0x3c792723	0.015207085
26	0xbc5d8edf	-0.013522833
27	0xba5e7188	-0.00084855454
28	0x39106a96	0.00013772617
29	0xbc4a55cf	-0.01234956
30	0xbcc8806d	-0.0244753
31	0x398b288e	0.00026542362
32	0xbca24343	-0.019807464
33	0x3ccc8f7a	0.024970759
34	0xbc4b2567	-0.012399054
35	0xbb2cb717	-0.0026354247
36	0xbca10786	-0.019656908
37	0xbca90cde	-0.020636018
38	0x3bd9930b	0.0066398433
39	0xbc4785f6	-0.012177935
40	0xbc0ab907	-0.0084669655
41	0xbcc0ea45	-0.023549208
42	0x3bc95f36	0.006145383
43	0xbd31fcf9	-0.043454144
44	0x3b967d4e	0.004592574
45	0x3ccea5c5	0.02522553
46	0x3c4455da	0.011983359
47	0xbca62eb9	-0.020285951
48	0xbb33565f	-0.0027364714
49	0xbb8d46dc	-0.0043114256
50	0xbd252709	-0.04032043
51	0xbd16559b	-0.036702733
52	0x3b94ef36	0.0045451177
53	0xbb401ff0	-0.0029315911
54	0x3caa51b8	0.02079092
55	0x39d160e2	0.0003993577
56	0xbc8c7f23	-0.017150467
57	0xbd5e8b59	-0.05433211
58	0x39fadd2b	0.000478485
59	0x3c524459	0.012833678
60	0x3c873083	0.016502624
61	0x3b5c386a	0.0033602961
62	0x3d0814af	0.03322285
63	0x3cdcb2a8	0.026940659

fc2.weight f4 [7, 64]
0	0x3d015866	0.031578444
1	0x3d2551b2	0.040361114
2	0xbb1fd72d	-0.002438973
3	0xbe0d7989	-0.13815893
4	0xbe66835a	-0.22511044
5	0xbdde8db2	-0.1086687
6	0x3c5c2e73	0.013438809
7	0xbaf9c872	-0.001905693
8	0x3e525414	0.20539886
9	0x3e5addef	0.21373723
10	0xbc5850c3	-0.013202849
11	0xbe45a651	-0.19301726
12	0xbd008d7a	-0.031384923
13	0x3da66b50	0.08125937
14	0x3dd35d34	0.103205115
15	0xbe7aedfd	-0.24504848
16	0x3d912e2e	0.07088886
17	0xbd8485df	-0.064708464
18	0x3f0d7a7e	0.55265033
19	0x3de0ba1a	0.10972996
20	0xbd3d492e	-0.046212368
21	0x3f0df405	0.5545047
22	0x3e911bc5	0.283415
23	0xbe7ce7a5	-0.2469774
24	0xbd22f015	-0.03977974
25	0x3d707a2c	0.058710262
26	0x3d604266	0.054750822
27	0xbe93160c	-0.28727758
28	0xbeaf2a60	-0.34212017
29	0xbe3472be	-0.17621896
30	0xbd9179be	-0.071032986
31	0xbf057c5f	-0.521429
32	0x3da5637a	0.08075614
33	0xbddc3a6c	-0.107533306
34	0x3f056644	0.5210917
35	0xbe9baff2	-0.30407673
36	0x3e1f0846	0.155305
37	0x3e8b8c56	0.27255505
38	0xbd1edc2f	-0.038784202
39	0x3bb63c95	0.005561421
40	0x3e914886	0.28375643
41	0xbe18b0b4	-0.14911157
42	0xbe865122	-0.26233774
43	0xbd04b071	-0.03239483
44	0x3e96d6b8	0.29460692
45	0xbe533376	-0.206251
46	0x3db2ee5a	0.08736868
47	0xbe81026d	-0.25197163
48	0xbc87b9f7	-0.016568167
49	0xbce21756	-0.027599018
50	0x3d2865f0	0.04111284
51	0x3b3db451	0.0028946588
52	0xbde7ff66	-0.1132801
53	0xbe6fa080	-0.2340107
54	0xbe880da8	-0.2657292
55	0x3e5832b0	0.21113086
56	0xbe7e08a3	-0.24807982
57	0x3e8a42ac	0.27003992
58	0xbdaa2504	-0.083078414
59	0xbe758c30	-0.23979259
60	0x3b72caa8	0.0037047062
61	0xbdd93e8e	-0.106076345
62	0xbe563d9e	-0.20921943
63	0xbdfa9495	-0.12235371
64	0xbddbe67a	-0.10737319
65	0x3ec1d968	0.3786118
66	0xbe31aba4	-0.17350632
67	0xbda1c31f	-0.078985445
68	0xbe5418c9	-0.2071258
69	0x3ebf4ad5	0.3736178
70	0xbdfe7991	-0.12425531
71	0x3e667f97	0.22509609
72	0x3e80646f	0.25076625
73	0x3e4d61dd	0.20056863
74	0xbe2ddca3	-0.16978697
75	0x38e49235	0.000108991204
76	0xbeb6a0cd	-0.35669556
77	0xbe6cdba1	-0.23130657
78	0x3d19a0e0	0.037506938
79	0x3d935592	0.071940556
80	0x3e828a06	0.2549593
81	0xbe2e0a0c	-0.1699602
82	0x3ea66eec	0.32506502
83	0x3ef82ad5	0.48470178
84	0x3bf61727	0.007510084
85	0xbeb7e60d	-0.35917702
86	0x3d4d252d	0.05008428
87	0xbb00b553	-0.0019639328
88	0x3dbeb2ab	0.09311422
89	0x3e00f54b	0.12593572
90	0x3e880c53	0.26571903
91	0x3d2f66e4	0.042822734
92	0x3d546b3d	0.051860083
93	0x3dab851b	0.08374997
94	0x3dc1242d	0.09430728
95	0xbdce7cdf	-0.10082411
96	0x3ecbff5e	0.39843267
97	0xbdea7a47	-0.11449104
98	0x3e068be6	0.13139305
99	0x3df69043	0.120392345
100	0xbe02082e	-0.12698433
101	0x3e35b8a9	0.17746224
102	0xbe3c2e57	-0.18377052
103	0x3bf07aeb	0.0073388717
104	0x3c925bf1	0.017866107
105	0x3e9eabf0	0.30990553
106	0x3e5d1a06	0.21591958
107	0x3edc0719	0.42974165
108	0x3e1548b5	0.14578517
109	0x3ce9aa4b	0.028523585
110	0xbd0d4013	-0.034484934
111	0x3cd6af9b	0.026206782
112	0x3ef1640b	0.4714664
113	0x3de3c50e	0.111215696
114	0x3ef2aedc	0.47399032
115	0x3e081f1b	0.13293116
116	0xbd86e5c7	-0.06586795
117	0xbe411b00	-0.18857956
118	0xbd1b5b91	-0.03792912
119	0x3e5ae11f	0.2137494
120	0x3dafaa91	0.08577455
121	0x3e530f7c	0.20611376
122	0x3d6d4e16	0.057935797
123	0x3d45bc21	0.048275117
124	0x3da6af46	0.081388995
125	0xbe79c7ea	-0.24392667
126	0xbe313ee7	-0.17309152
127	0xbc3cf135	-0.011532118
128	0xbe67c7eb	-0.22634856
129	0x3d9daca8	0.07698947
130	0xbdb782e2	-0.08960511
131	0x3d1255a2	0.035726197
132	0x3ee0a56a	0.438762
133	0xbe4ff73a	-0.20309153
134	0x3d52f029	0.051498566
135	0x3dfd5512	0.123697415
136	0x3eaba5eb	0.33525023
137	0x3e6caf04	0.23113638
138	0xbda74d30	-0.08169019
139	0xbd9c9962	-0.07646443
140	0xbe4cfff4	-0.20019513
141	0xbe989734	-0.2980286
142	0x3ec88bd5	0.39169183
143	0xbdbeed24	-0.09322575
144	0x3ec54d81	0.38535693
145	0xbe13c883	-0.14431958
146	0xbd832f3e	-0.06405495
147	0x3d35d7e3	0.04439534
148	0x3eea218a	0.45728713
149	0x3edd6f4f	0.43248984
150	0x3d707115	0.058701593
151	0xbe2d2d78	-0.16911876
152	0x3e777bf1	0.24168374
153	0x3daecf53	0.08535638
154	0x3e625d0c	0.22105807
155	0xbea7ecdd	-0.327979
156	0x3f14608b	0.5795981
157	0x3ea02a40	0.31282234
158	0x3e838034	0.2568375
159	0xbe0978c2	-0.13424972
160	0x3e132461	0.14369346
161	0xbdd89d03	-0.105768226
162	0x3e068655	0.13137181
163	0x3d7bf970	0.06151718
164	0xbd95799d	-0.072985865
165	0xbdcfaee2	-0.10140778
166	0xbe20fef3	-0.15722255
167	0x3ea91f1f	0.33031556
168	0x3c4702d9	0.012146675
169	0xbe2e11d8	-0.16998994
170	0xbe4ee57e	-0.20204732
171	0x3ed30c26	0.41220206
172	0x3e236c5f	0.15959309
173	0x3e4c5af6	0.19956574
174	0x3deca15a	0.11554213
175	0x3d9b9a2c	0.07597765
176	0x3f017564	0.5056975
177	0xbeb31b6d	-0.34981862
178	0x3e6d52e4	0.23176152
179	0x3ea3b5c1	0.31974605
180	0xbdebd4c6	-0.11515193
181	0x3e59021f	0.21192215
182	0x3e6457f2	0.22299173
183	0x3da0bd4e	0.07848607
184	0xbd18364c	-0.037161157
185	0xbeb785f9	-0.358444
186	0xbe555c32	-0.20835951
187	0xbdfa052b	-0.12208017
188	0xbdc2f2e4	-0.09518984
189	0xbdb052b3	-0.086095236
190	0xbc7be43a	-0.015374238
191	0xbe516a54	-0.20450717
192	0xbe186cf8	-0.14885318
193	0x3e5eb50b	0.2174875
194	0xbdc8b16e	-0.09799467
195	0x3ef759c2	0.48310667
196	0x3e38ad7a	0.18034926
197	0x3e4aaca3	0.19792418
198	0x3e30ee27	0.17278348
199	0xbe61b122	-0.22040227
200	0x3ed4638e	0.41482204
201	0x3e251006	0.16119394
202	0xbda62563	-0.081126
203	0xbd6a5219	-0.0572072
204	0xbe9cb1ef	-0.30604503
205	0x3e31cd2b	0.17363422
206	0x3e74e596	0.23915705
207	0x3cdb7a6e	0.026791777
208	0xbc740bea	-0.014895419
209	0xbdb71e16	-0.08941285
210	0x3e88e1d2	0.26734787
211	0xbdfc224e	-0.123112306
212	0x3e0a4f43	0.13506798
213	0xbc8cf2f2	-0.01720569
214	0xbe06187d	-0.13095279
215	0xbe08e4fd	-0.13368602
216	0x3e0c6435	0.13710101
217	0xbd0d33a1	-0.034473065
218	0xbdd534dc	-0.10410473
219	0xbe9920cf	-0.29907843
220	0x3dbd1329	0.0923217
221	0xbc9a29ef	-0.018818824
222	0x3ec724e5	0.38895336
223	0x3ce1486d	0.027500356
224	0x3e2f4cf5	0.171192
225	0xbd465a9a	-0.048426248
226	0x3de61eba	0.112363294
227	0x3d77bee7	0.060484793
228	0xbdf762c3	-0.12079384
229	0xbe4a52bd	-0.19758125
230	0x3df5b7ac	0.11997923
231	0x3d801990	0.06254876
232	0x3e60afa3	0.21942
233	0xbd4592bc	-0.04823564
234	0x3d6e8bd6	0.058238827
235	0x3e6dfed8	0.23241746
236	0xbdb550a2	-0.0885327
237	0xbe6a4584	-0.2287808
238	0x3e36b3bf	0.17842005
239	0xbc8d1edf	-0.017226635
240	0x3e0e9fe7	0.13928185
241	0xbe3a9d47	-0.18224059
242	0x3d865113	0.065584324
243	0x3e4a9f85	0.19787414
244	0x3c7501d5	0.01495405
245	0x3d26582c	0.04061143
246	0xbe62568d	-0.22103329
247	0x3e9486fa	0.2900923
248	0x3d96c02c	0.073608726
249	0x3e50abf7	0.203781
250	0x3dc7b7a9	0.09751827
251	0x3df69c1b	0.120414935
252	0xbdf3f352	-0.11911644
253	0xbe7c0581	-0.24611475
254	0xbdbb5548	-0.091471255
255	0xbe1571a9	-0.14594139

fc2.bias f4 [7]
0	0xbd08710d	-0.03331094
1	0x3b8411d2	0.0040304447
2	0x3ce7dc77	0.028303368
3	0xbc6f18f3	-0.014593351
4	0x3ddaa5fe	0.10676192
5	0xbc54bba2	-0.012984188
6	0xbb1a9c94	-0.0023591863
