weights/95wr_cnnc_022624.pt (torch, 868588 bytes, 8 tensors)

conv.weight f4 [128, 1, 4, 4]
-0.088425815 0.057932198 0.13781036 -0.07593397 0.027112564 -0.12017579 0.08595164 -0.04131597
0.057723902 0.10462004 -0.06557131 0.0045971344 0.16081649 -0.11973499 -0.0649751 0.003929482
-0.13717303 -0.10463493 -0.07932507 0.026417287 -0.14193796 -0.06480077 -0.087821074 0.08497703
-0.050528433 0.046007577 0.13751544 0.112732455 -0.07620502 -0.03059955 -0.037811022 0.08709978
0.1246868 0.08945086 0.022489496 -0.023825571 0.1418546 0.13742855 0.025244934 -0.11278544
0.0699101 0.09371726 -0.022342382 -0.06632451 -0.13981016 0.09823419 -0.026816882 -0.057420596
-0.008325651 0.027080132 0.04567761 0.022289965 0.03413764 -0.046745438 0.10364644 -0.15166558
-0.01931286 0.0808424 -0.11424935 0.10494332 0.09444461 0.110844135 0.020237513 0.052133627
0.03051793 0.04674114 -0.041565154 0.0535904 -0.017815689 0.02257432 -0.067553505 0.14813323
0.035958502 -0.067723654 0.07590467 0.15159413 -0.11353103 -0.10151034 -0.10925337 0.14417903
0.14924054 -0.04071714 0.0026257122 0.13908878 -0.01307431 -0.0011705452 -0.13061915 -0.013096399
0.044758923 0.09863482 -0.10748418 0.088739194 -0.123814054 0.024769891 -0.028763048 -0.012967268
0.025474897 -0.23621424 -0.0207118 -0.007836606 -0.09034014 0.018877551 -0.12210114 0.049558613
-0.044202212 -0.09994426 -0.020237966 0.046291072 0.013383222 0.026231112 0.04254759 -0.0012113898
0.046384573 0.075216256 0.11203352 0.009082232 0.051467676 0.016706795 -0.09592811 0.09464848
-0.012207502 -0.022618314 0.08855895 -0.089834474 0.0054763467 -0.1225291 -0.14132759 0.01705722
-0.0646196 -0.08883305 0.035105124 -0.12610748 0.061625008 -0.09883365 -0.04533274 -0.13289121
0.035314705 -0.04927066 -0.033078883 -0.14190641 -0.08676447 -0.102995455 -0.03880352 -0.13302526
-0.076909214 -0.11898532 -0.053824376 0.051870584 -0.11502187 -0.012302635 -0.08263997 0.04268626
-0.109261625 -0.0074066054 -0.00077355927 -0.06840301 0.10894984 -0.14475681 -0.030765023 0.055100147
0.052615047 -0.06388483 0.14230819 0.02644481 0.13813047 -0.032448504 0.06461688 -0.08497311
-0.025544941 0.0736307 -0.025708929 -0.063762195 -0.00023226286 0.030584121 0.12724769 -0.022579376
0.066664964 -0.0970482 -0.10363178 0.06323715 0.08359036 0.06630166 0.017833233 -0.02741081
-0.05450814 0.015588969 -0.07139645 -0.11100637 -0.09463029 -0.09108761 -0.02962522 0.07165375
0.018882973 0.13117842 0.14400992 -0.0525439 -0.070525 -0.17337333 -0.092258595 0.07167779
-0.0063558966 0.085852705 -0.065762244 -0.12251637 0.00069766474 -0.050917905 0.07951557 0.065115295
0.14183722 -0.14561585 -0.00094832445 -0.13568601 0.10008276 0.022333434 -0.009749048 -0.11747918
0.067171924 -0.0238983 -0.060401756 -0.07566546 0.12254612 -0.061252527 -0.0982322 -0.10407473
-0.028620018 0.027782733 -0.059048053 -0.09596854 -0.052622914 0.0055965036 0.10575587 -0.13266498
-0.11491808 -0.039436128 -0.15719101 -0.11105718 0.01666914 0.0693727 0.11605297 -0.113712184
-0.054734804 -0.0035112891 -0.059562776 -0.05913111 -0.008226009 -0.07315973 0.07625003 -0.15487662
0.15528107 0.09395794 0.07004381 0.02843246 0.14377865 -0.024433278 0.08814412 0.12643786
00000000: 9818 b5bd 504a 6d3d 291e 0d3e 4583 9bbd
00000010: 2b1b de3c b91e f6bd 6a07 b03d ef3a 29bd
00000020: e66f 6c3d 0843 d63d 404a 86bd 8fa3 963b
00000030: 14ad 243e 9e37 f5bd aa11 85bd e2c2 803b
00000040: 1677 0cbe d74a d6bd 2f75 a2bd 1169 d83c
00000050: 2f58 11be 44b6 84bd 89db b3bd 7008 ae3d
00000060: e7f6 4ebd 7172 3c3d d9d0 0c3e 46e0 e63d
00000070: 6111 9cbd e8ab fabc bbdf 1abd 5f61 b23d
00000080: cb5b ff3d 0332 b73d e43b b83c d82d c3bc
00000090: 5542 113e 12ba 0c3e 77ce ce3c 0efc e6bd
000000a0: 072d 8f3d d6ee bf3d 5f07 b7bc 25d5 87bd
000000b0: 652a 0fbe 022f c93d 14af dbbc dc31 6bbd
000000c0: 5068 08bc 27d7 dd3c 7218 3b3d 7299 b63c
000000d0: e9d3 0b3d 2578 3fbd 9644 d43d 394e 1bbe
000000e0: 0136 9ebc b390 a53d 90fb e9bd 86ec d63d
000000f0: 2d6c c13d 4002 e33d 24c9 a53c 128a 553d
00000100: bd00 fa3c a373 3f3d 3940 2abd 9b81 5b3d
00000110: 35f2 91bc c8ed b83c 7e59 8abd 3db0 173e
00000120: 3949 133d b3b2 8abd e873 9b3d 7e3b 1b3e
00000130: f582 e8bd a7e4 cfbd 3bc0 dfbd aba3 133e
00000140: 83d2 183e 04c7 26bd 2414 2c3b 4a6d 0e3e
00000150: a135 56bc fb6c 99ba 07c1 05be 4792 56bc
00000160: 2255 373d 0d01 ca3d aa20 dcbd e5bc b53d
00000170: 3992 fdbd 3aea ca3c 7ca0 ebbc aa74 54bc
00000180: bbb0 d03c 25e2 71be cbab a9bc 1c65 00bc
00000190: 4004 b9bd 18a5 9a3c 2a10 fabd f9fd 4a3d
000001a0: 610d 35bd 94af ccbd 17ca a5bc b59b 3d3d
000001b0: 4d45 5b3c a1e2 d63c 6246 2e3d 7fc7 9eba
000001c0: c0fd 3d3d fb0a 9a3d d571 e53d a4cd 143c
000001d0: c5cf 523d b0dc 883c f575 c4bd 10d7 c13d
000001e0: f901 48bc 0b4a b9bc 655e b53d 23fb b7bd
000001f0: ed72 b33b 89f0 fabd 2eb8 10be 95bb 8b3c
00000200: 4857 84bd 1aee b5bd 64ca 0f3d 5222 01be
00000210: 816a 7c3d 4c69 cabd d3ae 39bd a214 08be
00000220: 27a6 103d 08d0 49bd b97d 07bd ea4f 11be
00000230: 92b1 b1bd 48ef d2bd 71f0 1ebd c637 08be
00000240: 9482 9dbd 93ae f3bd f376 5cbd 4076 543d
00000250: 9690 ebbd fe90 49bc 253f a9bd cad7 2e3d
00000260: 8fc4 dfbd 1cb3 f2bb afc8 4aba e116 8cbd
00000270: 1821 df3d 213b 14be ee06 fcbc b1b0 613d
00000280: e082 573d 0dd6 82bd 3db9 113e c9a2 d83c
00000290: 1372 0d3e b9e8 04bd db55 843d 6206 aebd
000002a0: a043 d1bc b1cb 963d 889b d2bc c195 82bd
000002b0: 968b 73b9 8d8b fa3c 384d 023e 62f8 b8bc
000002c0: a487 883d 35c1 c6bd e63c d4bd 7b82 813d
000002d0: 6c31 ab3d 2ac9 873d 0017 923c a38c e0bc
000002e0: ed43 5fbd e068 7f3c 4d38 92bd 4f57 e3bd
000002f0: 87cd c1bd 248c babd 97b0 f2bc 34bf 923d
00000300: 77b0 9a3c a353 063e 5677 133e 4638 57bd
00000310: 696f 90bd c788 31be 13f2 bcbd cecb 923d
00000320: 2045 d0bb 8bd3 af3d 5bae 86bd dde9 fabd
00000330: 7de3 363a 4b8f 50bd 0fd9 a23d 2b5b 853d
00000340: c73d 113e 521c 15be fa98 78ba 46f1 0abe
00000350: 31f8 cc3d 9bf4 b63c 79ba 1fbc ed98 f0bd
00000360: 6f91 893d 5ec6 c3bc d567 77bd 7ef6 9abd
00000370: 76f9 fa3d eee3 7abd f72d c9bd 2225 d5bd
00000380: 8774 eabc 9d98 e33c 5fdc 71bd 278b c4bd
00000390: 208b 57bd e062 b73b 8996 d83d 54d9 07be
000003a0: 2c5a ebbd c787 21bd aef6 20be f271 e3bd
000003b0: b88d 883c 4613 8e3d 2ead ed3d efe1 e8bd
000003c0: 9a31 60bd a81d 66bb 19f8 73bd 7633 72bd
000003d0: 62c6 06bc c5d4 95bd fa28 9c3d fa97 1ebe
000003e0: 0002 1f3e 056d c03d 2173 8f3d 31eb e83c
000003f0: b63a 133e 4c28 c8bc e884 b43d ed78 013e

conv.bias f4 [128]
-0.011615409 -0.07483979 -0.027214333 0.004953392 -0.014286853 -0.0019765515 0.052383307 -0.029378062
-0.12924477 0.013918844 0.09228346 0.053414732 -0.05515389 -0.0065796403 -0.1322482 -0.12467418
-0.103011645 -0.0077574863 -0.016473893 0.07160607 -0.040135123 0.030985793 -0.034664635 -0.0901422
0.108543165 -0.08499125 -0.012875028 -0.09203842 -0.03185372 0.034175824 -0.009471988 -0.049849074
-0.08611154 -0.00738648 -0.07134078 0.055918407 -0.027300093 0.07622249 0.06175522 -0.107817926
0.05152943 0.10939827 0.026247604 -0.070757315 0.06407032 -0.009297984 -0.037573885 -0.049160462
-0.0019321163 0.09025666 -0.12818769 -0.032684304 0.04742397 -0.010215696 -0.09576132 0.119454175
-0.011497059 0.07099339 -0.02770364 -0.009892117 0.046959575 -0.022510994 -0.017638564 0.0057766414
-0.050481834 -0.05718572 0.091848314 0.03452543 -0.16271529 -0.005179171 -0.08194474 0.030500043
0.0031930835 0.06599768 0.04298872 -0.04366717 0.078448266 -0.068273015 0.08949192 -0.0032339809
-0.05561707 0.0010876553 -0.08314491 0.006308656 0.001908707 -0.021149425 0.06874472 0.04780428
-0.13825983 -0.13365635 -0.10466589 -0.07370359 -0.08336025 -0.040144566 -0.03274305 -0.13051926
-0.011830683 0.0782254 0.06608161 -0.13203442 -0.035515103 -0.054341514 -0.08081537 -0.1339217
-0.08262925 0.07502428 -0.08524569 0.09463499 -0.00023662944 0.01590974 -0.10690121 -0.055713702
-0.10057684 0.0574277 0.07683962 0.007278964 -0.07410597 -0.08227131 -0.07829497 -6.336458e-05
0.013505664 -0.0636895 -0.113808714 -0.061714035 0.068865724 0.09968276 0.05619289 -0.015404204
00000000: 8e4e 3ebc 9b45 99bd 98f0 debc 1050 a23b
00000010: 6813 6abc 0889 01bb e18f 563d 43aa f0bc
00000020: be58 04be dd0b 643c 1cff bc3d 68c9 5a3d
00000030: 0ce9 61bd 069a d7bb 126c 07be 2d55 ffbd
00000040: c5f7 d2bd 8332 febb 42f4 86bc 34a6 923d
00000050: ba64 24bd ebd5 fd3c 81fc 0dbd 799c b8bd
00000060: e14b de3d e40f aebd c8f1 52bc a47e bcbd
00000070: 0c79 02bd f3fb 0b3d 6630 1bbc 8b2e 4cbd
00000080: 3f5b b0bd 490a f2bb 1d1b 92bd b30a 653d
00000090: 72a4 dfbc 891a 9c3d 0bf3 7c3d a5cf dcbd
000000a0: 8610 533d 330c e03d 3705 d73c 36e9 90bd
000000b0: 4d37 833d 9256 18bc 13e7 19bd 7b5c 49bd
000000c0: 113f fdba 7cd8 b83d a243 03be fadf 05bd
000000d0: a33f 423d bc5f 27bc 831e c4bd 64a4 f43d
000000e0: 295e 3cbc fc64 913d bef2 e2bc 8c12 22bc
000000f0: af58 403d fa68 b8bc c07e 90bc fb49 bd3b
00000100: 0ac6 4ebd 933b 6abd f81a bc3d 8a6a 0d3d
00000110: d69e 26be 09b6 a9bb a5d2 a7bd 3adb f93c
00000120: 0d43 513b cb29 873d f114 303d 59dc 32bd
00000130: 7ca9 a03d b9d2 8bbd 8a47 b73d 32f1 53bb
00000140: bace 63bd a88f 8e3a e147 aabd d8b8 ce3b
00000150: 942d fa3a 8f41 adbc 08ca 8c3d 6cce 433d
00000160: fc93 0dbe 36dd 08be 125b d6bd e8f1 96bd
00000170: c7b8 aabd a16e 24bd 941d 06bd d7a6 05be
00000180: 7bd5 41bc a334 a03d cc55 873d 0834 07be
00000190: 4978 11bd 3595 5ebd 8782 a5bd c522 09be
000001a0: 8639 a9bd 54a6 993d 4b95 aebd fdcf c13d
000001b0: bb1f 78b9 2555 823c 06ef dabd 0d34 64bd
000001c0: 3bfb cdbd 4f39 6b3d 175e 9d3d 6084 ee3b
000001d0: dfc4 97bd dc7d a8bd 1d59 a0bd 9ae2 84b8
000001e0: dc46 5d3c a46f 82bd 8b14 e9bd dbc7 7cbd
000001f0: 7909 8d3d 7a26 cc3d 842a 663d ea61 7cbc

fc1.weight f4 [128, 1536]
-0.005139665 0.022932433 0.0045484947 -0.020269992 0.0032464047 -0.00020330542 -0.0008771964 -0.027360648
0.007044874 -0.0132017145 0.013635491 0.011499987 -0.024348471 -0.017388431 -0.014717879 0.007704245
-0.002595411 0.0037379574 -0.010001117 0.011928834 0.034866698 -0.0008954642 0.008226631 0.0038805744
0.011335617 0.014177549 -0.027285123 0.016020782 0.018949702 0.0036619445 -0.018105684 -0.0050274124
0.0022925616 -0.006865975 0.0029266526 0.030609924 -0.009472193 0.021525912 -0.019200599 -0.020564318
0.010004034 -0.0013563978 0.012381921 -0.016007187 0.004059484 -0.01094899 0.012484165 -0.005965015
-0.023211587 0.002205321 0.0032939143 0.013845989 0.002576546 0.0011741263 -0.00086905446 0.024419893
0.020753765 0.015207653 -0.0122481 0.024913693 0.0047993297 0.008008096 -0.024130618 -0.0065040765
0.012682385 -0.008269361 -0.017654033 -0.013387282 -0.008486461 -0.011504665 0.0012940197 0.009104684
-0.009051744 -0.016614735 0.008910756 0.010762454 -0.016199484 -0.00026252007 -0.012671791 0.009004336
0.010671393 -0.0054863626 0.0058601303 0.009583315 0.019880358 0.008211084 0.005867346 -0.0034266396
0.0040923385 0.00593512 -0.015236696 -0.010517894 0.00926074 0.0026028433 0.0013355574 0.0029766848
0.0026652564 0.012859006 -0.0021249147 0.033199355 -0.0029650263 0.022063673 -0.008268461 0.033765126
0.015465778 0.016939353 -0.011734731 0.02082706 0.020630049 0.0029734992 -0.0070613176 -0.013979819
0.008236265 -0.0040915706 -0.014748002 0.0059118834 0.01146245 -0.0051029576 0.000572225 0.004185804
-0.0041587213 0.0022521482 -0.007513406 0.011230791 0.00482956 0.017040664 0.0008600379 0.008889939
0.009963382 -0.009553045 -0.00069870905 0.001934637 0.011550773 -0.004569823 0.00178073 0.008266901
-0.0052405633 -0.00027765823 -0.0073154178 -0.0057498957 -0.0011778789 0.0076119117 -0.0045509166 0.0064969617
-0.0017603523 -0.0010765552 -0.007261727 -0.02637621 -0.017138673 0.009043295 0.01230087 0.0031248657
0.0022660277 0.01410164 -0.0013870664 0.005528228 -0.00690635 -0.0064980783 -0.0069468697 -0.01696494
-0.0086732665 -0.012324271 -0.025430031 0.016414996 0.0072130947 0.006643664 -0.0073504997 0.015775114
-0.014852005 0.026054593 -0.0062907618 0.018921427 -0.017950948 0.016585272 -0.015934635 0.040858828
0.0009612781 0.017143983 0.011870374 0.02699378 -0.0008899162 -0.032889813 -0.014692428 -0.04338202
0.017362801 -0.0054649115 -0.00022420452 -0.004274985 0.0030561804 0.0018849832 -0.017653272 0.0076881144
0.030588942 -0.0074832113 -0.012144103 0.0011661354 0.009113524 -0.0013227345 0.009026025 -0.012909917
0.018528525 -0.0047043473 -0.014634161 -0.006565142 0.0022033341 0.00032663456 -0.0102108745 0.0057848315
-0.004599935 -0.023629097 -0.02632156 0.01488593 0.017774152 0.013809011 -0.0060774824 0.011781707
0.0031780305 -0.00038906338 -0.0074306885 -0.014706996 0.011822766 -0.0009941941 0.0015857539 -0.0050774342
0.03528233 -0.0031846447 -0.0050673853 -0.012197709 0.001736174 -0.011154302 -0.0052084043 -0.015130003
0.014408756 0.003189298 -0.0014760293 -0.013613896 0.008746115 0.006413974 0.003245543 0.017039157
-0.0040466534 -0.008163769 -0.009397006 1.9586829e-05 -0.02228059 0.0035737504 -0.024052694 -0.027160643
0.014591702 0.0020681426 0.00867887 -0.001891456 -0.03785106 0.0030324578 -0.02154462 -0.0031629195
00000000: a36a a8bb ccdc bb3c 8a0b 953b 410d a6bc
00000010: a2c1 543b 622e 55b9 a7f3 65ba 7023 e0bc
00000020: b0d8 e63b 014c 58bc 6567 5f3c 716a 3c3c
00000030: 7276 c7bc 2f72 8ebc 4223 71bc e473 fc3b
00000040: c517 2abb 85f8 743b badb 23bc 2871 433c
00000050: 62d0 0e3d 96bd 6aba fec8 063c 3c51 7e3b
00000060: 06b9 393c f348 683c 0d85 dfbc 043e 833c
00000070: 683c 9b3c 3cfd 6f3b 5f52 94bc febc a4bb
00000080: cd3e 163b f9fb e0bb 15cd 3f3b aac1 fa3c
00000090: 4231 1bbc 1c57 b03c 934a 9dbc 8076 a8bc
000000a0: f6e7 233c 28c9 b1ba 8add 4a3c 8121 83bc
000000b0: 6c05 853b 6463 33bc 628a 4c3c 2c76 c3bb
000000c0: 3a26 bebc 2687 103b b6de 573b 49da 623c
000000d0: 45db 283b 24e5 993a 42d1 63ba 3a0c c83c
000000e0: cd03 aa3c 8529 793c 41ac 48bc cd17 cc3c
000000f0: b243 9d3b 6434 033c 93ad c5bc 2620 d5bb
00000100: c7c9 4f3c 377c 07bc 319f 90bc 5556 5bbc
00000110: cc0a 0bbc 107e 3cbc 199c a93a d02b 153c
00000120: c44d 14bc a01b 88bc 6bfe 113c 0155 303c
00000130: c8b4 84bc d9a2 89b9 589d 4fbc ec86 133c
00000140: 11d7 2e3c f2c6 b3bb 5606 c03b 5603 1d3c
00000150: 22dc a23c c887 063c de42 c03b 7991 60bb
00000160: 0619 863b 657b c23b 56a3 79bc 3f53 2cbc
00000170: 5cba 173c 7794 2a3b df0d af3a 7c14 433b
00000180: 95ab 2e3b 95ae 523c 2742 0bbb 0cfc 073d
00000190: e350 42bb e0be b43c 7078 07bc 4d4d 0a3d
000001a0: 2d64 7d3c 66c4 8a3c 0743 40bc 839d aa3c
000001b0: 5900 a93c 0adf 423b a062 e7bb 9c0b 65bc
000001c0: 66f1 063c 9512 86bb 9ba1 71bc 79b8 c13b
000001d0: 00cd 3b3c b636 a7bb 5f01 163a 1229 893b
000001e0: e245 88bb c798 133b 0533 f6bb 5a01 383c
000001f0: 4941 9e3b dd98 8b3c 2b74 613a 1ba7 113c
00000200: 743d 233c 6084 1cbc 9229 37ba a593 fd3a
00000210: 743f 3d3c 74be 95bb 6267 e93a e571 073c
00000220: 08b9 abbb a892 91b9 2cb6 efbb 9f69 bcbb
00000230: 0f63 9aba 586d f93b db1f 95bb 77e4 d43b
00000240: 9fbb e6ba 331b 8dba c8f3 edbb ec12 d8bc
00000250: 6766 8cbc 542a 143c 9789 493c 8cca 4c3b
00000260: a381 143b 910a 673c 3ace b5ba 2326 b53b
00000270: aa4e e2bb d5ed d4bb 91a2 e3bb 0ffa 8abc
00000280: 511a 0ebc bdeb 49bc a452 d0bc be78 863c
00000290: d35b ec3b 18b3 d93b 76dc f0bb d03a 813c
000002a0: d355 73bc 7170 d53c bc22 cebb 1c01 9b3c
000002b0: de0d 93bc d6dd 873c 5a89 82bc 965b 273d
000002c0: 48fe 7b3a 8a71 8c3c f57b 423c 0f22 dd3c
000002d0: 4449 69ba 78b7 06bd 82b8 70bc 58b1 31bd
000002e0: 6f3c 8e3c 0013 b3bb 7118 6bb9 2c15 8cbb
000002f0: 334a 483b 8a11 f73a 989d 90bc 94ec fb3b
00000300: a995 fa3c ba35 f5bb 0ff8 46bc 03d9 983a
00000310: e450 153c 9b5f adba e5e1 133c 1e84 53bc
00000320: 22c9 973c ed26 9abb 1fc4 6fbc 6720 d7bb
00000330: d065 103b 2640 ab39 834b 27bc af8e bd3b
00000340: 0dbb 96bb cf91 c1bc 50a0 d7bc 1ee4 733c
00000350: 199b 913c 313f 623c 9e25 c7bb 1008 413c
00000360: 8146 503b 34fb cbb9 227d f3bb 9df5 70bc
00000370: 46b4 413c 9e4f 82ba 12d9 cf3a 9b60 a6bb
00000380: 3484 103d 79b5 50bb 4f0c a6bb e6d8 47bc
00000390: 5590 e33a 89c0 36bc 43ab aabb d5e3 77bc
000003a0: b412 6c3c 8b03 513b 5377 c1ba d20c 5fbc
000003b0: dd4b 0f3c 502c d23b 2db3 543b b495 8b3c
000003c0: ca99 84bb 54c1 05bc e6f5 19bc 654e a437
000003d0: c985 b6bc 9535 6a3b 280a c5bc ff7f debc
000003e0: 0912 6f3c ad89 073b d231 0e3c bbea f7ba
000003f0: b709 1bbd 33bc 463b 587e b0bc fc48 4fbb

fc1.bias f4 [128]
-0.014476545 0.012705179 -0.0013611835 -0.022979302 0.00011448928 0.01482322 0.0048865606 0.014262346
0.016611604 -0.0031206757 0.013549928 -0.0010615694 -0.01998609 -0.030365147 -0.0021365152 -0.003506259
-0.013681657 0.00013321919 0.0073324316 -0.018087933 0.016740259 0.0012177058 -0.0038799352 -0.013684894
-0.010118707 -0.002967972 -0.0015234285 -0.018896738 -0.0023303325 -0.010160146 -0.023760121 -0.002265738
-0.01593686 -0.030651884 0.00090206054 -0.020330269 0.009517797 -0.0038445317 -0.0031838268 -0.020084366
0.0038909004 -0.019966273 -0.004271911 -0.024211537 -0.012364269 -0.0026399374 0.00367962 -0.0015943665
-0.023428153 -0.019142997 -0.022034522 0.007589315 0.010339151 -0.013590233 -0.01267615 -0.0093158735
-0.013130847 -0.019473894 -0.008652895 0.021820612 -0.0019243014 -0.012733197 -0.011693979 -0.00045949925
-0.017332511 0.011754921 0.0020393326 0.0044658077 -0.0054958705 0.00789727 0.027601015 -0.0011909584
-0.016445927 -0.00964768 0.0009236727 0.022114826 0.0040581767 0.026105033 -0.018076546 0.00792778
-9.410308e-05 0.0028393557 -0.004472766 0.0060235285 0.0067531792 -0.029681837 -0.0074037467 0.0048953253
0.0237343 -0.004510865 -0.008443743 -0.011461824 0.0014780284 0.0021130885 -0.004044491 -0.013560259
0.01660433 -0.018422456 0.009937879 0.009665362 0.0035191441 -0.0021126883 0.0058241747 0.0051247007
0.0391453 0.00063914026 0.010224046 0.022141837 -0.002428482 0.0011398067 0.0065865144 0.020071626
-0.0028937098 -0.0012265425 -0.0077532665 -0.016254418 -0.01570421 -0.0016146265 0.005221321 -0.018022895
0.020383008 -0.00088757434 0.002553141 -0.0005974637 -0.008316458 -0.011778978 -0.014644261 0.0035087909
00000000: 082f 6dbc 6229 503c bd69 b2ba 173f bcbc
00000010: f719 f038 17dd 723c 711f a03b 9dac 693c
00000020: 0f15 883c 4084 4cbb 8400 5e3c 5c24 8bba
00000030: deb9 a3bc 54c0 f8bc c704 0cbb 44c9 65bb
00000040: 0729 60bc c1b0 0b39 e544 f03b 252d 94bc
00000050: de22 893c 6d9b 9f3a 8346 7ebb 9b36 60bc
00000060: efc8 25bc 4f82 42bb c7ad c7ba 55cd 9abc
00000070: 7eb8 18bb be76 26bc 96a4 c2bc c77c 14bb
00000080: 058e 82bc a919 fbbc 4278 6c3a aa8b a6bc
00000090: 89f0 1b3c 8af4 7bbb c0a7 50bb f887 a4bc
000000a0: 7afe 7e3b 4f90 a3bc 63fb 8bbb 4657 c6bc
000000b0: 8193 4abc cd02 2dbb c825 713b 10fa d0ba
000000c0: 66ec bfbc c6d1 9cbc be81 b4bc caaf f83b
000000d0: 8b65 293c 92a9 5ebc a0af 4fbc 9ba1 18bc
000000e0: c422 57bc b787 9fbc dfc4 0dbc 24c1 b23c
000000f0: d738 fcba e69e 50bc 1a98 3fbc f2e8 f0b9
00000100: e9fc 8dbc b697 403c 53a6 053b e955 923b
00000110: b416 b4bb 8d63 013c 861b e23c ef19 9cba
00000120: 9cb9 86bc 4e11 1ebc a022 723a 272a b53c
00000130: 74fa 843b 39da d53c 4415 94bc 85e3 013c
00000140: 3559 c5b8 7c14 3a3b 4890 92bb 0561 c53b
00000150: c649 dd3b 5327 f3bc 219b f2bb f768 a03b
00000160: 6f6e c23c e1cf 93bb a057 0abc 60ca 3bbc
00000170: 67ba c13a be7b 0a3b a687 84bb d92b 5ebc
00000180: ce05 883c b1ea 96bc 7cd2 223c 775b 1e3c
00000190: 71a1 663b 0775 0abb b8d8 be3b 1bed a73b
000001a0: d256 203d fa8b 273a c282 273c cc62 b53c
000001b0: 2b27 1fbb 9165 953a b0d3 d73b 406d a43c
000001c0: 65a4 3dbb f0c3 a0ba 1d0f febb fc27 85bc
000001d0: 1ea6 80bc e0a1 d3ba 9d17 ab3b c0a4 93bc
000001e0: 44fa a63c 1bac 68ba 9952 273b 1c9f 1cba
000001f0: c141 08bc 9dfc 40bc 7cee 6fbc bef3 653b

fc2.weight f4 [128, 128]
0.049518224 0.032769702 0.0128689725 0.019069275 -0.047669236 -0.016539471 0.048526306 0.054705385
-0.0008018004 -0.02324422 0.046652943 0.07319103 0.010791653 -0.041652072 0.017518625 0.04184052
-0.006920005 0.042331263 -0.095247775 0.042220823 0.0324186 0.029860875 0.07864818 -0.0010586577
0.060610726 -0.057997305 0.010526269 0.072049744 0.0008639858 0.01354695 0.049785685 0.0001175205
-0.045472816 0.034206834 0.0015387785 -0.01853272 0.06901249 -0.00963759 0.084745005 0.032180253
0.044605814 0.0038194805 0.030597704 0.025056234 -0.04377952 0.037919234 0.0018268704 0.008852929
0.00041465857 0.018661879 -0.0114107225 0.004938339 0.036501084 0.0274967 -0.10366498 -0.045810822
0.043262463 0.001988912 -0.01169666 0.038399674 -0.006379229 -0.0025727826 -0.017309787 0.030802414
0.06555414 0.009187092 -0.010161595 -0.014707066 -0.00010117793 0.055395164 0.042830657 -0.018170897
0.010748939 0.041815914 0.030579863 0.006534767 0.06514717 -0.014587975 -0.00567278 -0.028432794
-0.04263347 0.06008426 0.022970423 -0.015562583 -0.018759873 0.023156721 0.03836298 0.040054675
-0.03633492 -0.04196757 0.10202948 -0.028558642 0.04150983 -0.014351611 0.012770318 -0.011376846
0.03561011 -0.01006314 -0.019709606 0.033214916 -0.03920813 0.06526439 0.022325853 -0.0075172796
0.05290103 0.009900943 -0.010779114 -0.002830147 -0.03189545 -0.072900824 0.011397378 -0.01181371
-0.01216749 0.023957407 0.06840429 -0.0035102847 0.032233234 -0.022747627 0.03483533 0.03483174
0.06708775 -0.013793477 0.07667092 -0.030846024 -0.055665452 -0.0054776804 0.08159241 0.002205561
0.03949665 0.07227971 0.017218089 -0.025144571 -0.033038903 0.041147463 0.04024062 0.062833674
-0.032684945 0.04409809 0.035902403 0.007812584 0.046313453 0.06228168 -0.014778206 0.034889504
-0.009991793 0.0462184 0.004281758 -0.018824145 -0.006840085 -0.055616107 -0.027711403 0.03300427
-0.0038072162 0.055096734 0.025089689 -0.014029895 -0.024098119 0.019810315 -0.07343561 0.016552793
-0.046694264 0.016641626 0.00549131 -0.07825983 -0.0037960685 0.08129761 -0.02835797 -0.024546599
0.0028025087 0.058912963 -0.041296326 -0.04016004 0.06333876 0.06257275 0.0058833812 -0.0016057478
0.07747066 0.059141103 -0.028226554 0.064116314 -0.0010378078 -0.0011019411 0.07306791 -0.06348498
-0.01126348 -0.019723224 0.015392328 0.063563526 0.041879676 -0.0025841226 0.07278255 -0.020792443
0.017250262 0.0115475645 0.042143535 0.048724174 -0.027089288 0.06867429 0.07459984 7.220577e-05
0.034727953 0.031020692 0.017913062 -0.037056997 0.036111977 0.06517732 0.000860358 0.09124667
-0.0076997625 -0.0037676918 0.058325637 0.013062016 0.03417403 0.07278477 0.054782648 -0.00582075
0.033023417 0.109411485 -0.030257383 -0.018014003 0.07767949 -0.014830963 -0.017232869 -0.05814453
0.009875493 0.051401794 0.07939291 0.025354894 0.07438031 -0.07302751 -0.0259649 0.0460074
0.01063657 0.007865886 0.047120824 -0.03640284 0.08120989 0.05566157 0.013717054 -0.012392463
0.053415682 -0.0010880053 0.028462317 -0.009101307 0.029290576 -0.026289105 0.023867963 -0.05943107
0.03507037 -0.0041261627 -0.06309798 0.016928855 0.069770075 0.010210359 0.008737959 -0.03556989
00000000: 9fd3 4a3d 8639 063d 62d8 523c 2b37 9c3c
00000010: d140 43bd c97d 87bc 85c3 463d c112 603d
00000020: ea2f 52ba aa6a bebc 2817 3f3d 2ee5 953d
00000030: 79cf 303c 5d9b 2abd 3883 8f3c f760 2b3d
00000040: 36c1 e2bb 8c63 2d3d 4411 c3bd beef 2c3d
00000050: 5ec9 043d cb9e f43c 4c12 a13d a8c2 8aba
00000060: f442 783d 958e 6dbd 5f76 2c3c d18e 933d
00000070: 1b7d 623a 07f4 5d3c 13ec 4b3d 5775 f638
00000080: b441 3abd 771c 0c3d d7b0 c93a eed1 97bc
00000090: 6c56 8d3d fbe6 1dbc ca8e ad3d 71cf 033d
000000a0: 96b4 363d 4050 7a3b 09a8 fa3c bb42 cd3c
000000b0: 2752 33bd 3351 1b3d 9973 ef3a e00b 113c
000000c0: 8866 d939 cce0 983c 0af4 3abc cad1 a13b
000000d0: 2982 153d c240 e13c 4e4e d4bd 21a4 3bbd
000000e0: fb33 313d 6858 023b 59a3 3fbc fa48 1d3d
000000f0: da08 d1bb 219c 28bb 41cd 8dbc 5855 fc3c
00000100: 4041 863d 7585 163c d27c 26bc e8f5 70bc
00000110: 7d2f d4b8 0ae6 623d 336f 2f3d 22db 94bc
00000120: 511c 303c 2a47 2b3d 9f82 fa3c 9921 d63b
00000130: e16b 853d 6702 6fbc bae2 b9bb e4eb e8bc
00000140: 6fa0 2ebd ea1a 763d 782c bc3c 34fa 7ebc
00000150: 4eae 99bc 2ab3 bd3c 8022 1d3d 5f10 243d
00000160: edd3 14bd 30e6 2bbd d5f4 d03d d0f3 e9bc
00000170: 3606 2a3d 0523 6bbc 993a 513c f365 3abc
00000180: e8db 113d dedf 24bc 0a76 a1bc 5d0c 083d
00000190: b498 20bd 56a9 853d b5e4 b63c 8353 f6bb
000001a0: c0ae 583d 9137 223c e29a 30bc fd79 39bb
000001b0: cea4 02bd 074d 95bd 11bc 3a3c 4b8e 41bc
000001c0: 275a 47bc 5342 c43c 8c17 8c3d ce0c 66bb
000001d0: ff06 043d 3b59 babc 7eaf 0e3d baab 0e3d
000001e0: 4d65 893d 09fe 61bc a505 9d3d cdb0 fcbc
000001f0: 7501 64bd 1d7e b3bb ec19 a73d 2c8b 103b
00000200: 3dc7 213d 6207 943d f30c 8d3c fdfb cdbc
00000210: cd53 07bd 3e8a 283d 59d3 243d f1ae 803d
00000220: a6e0 05bd 33a0 343d 660e 133d 5a00 003c
00000230: 2db3 3d3d 131b 7f3d 4a20 72bc 4ce8 0e3d
00000240: 9eb4 23bc 814f 3d3d fd4d 8c3b 1835 9abc
00000250: cb22 e0bb b7cd 63bd 0603 e3bc 7c2f 073d
00000260: 7d82 79bb 1dad 613d e488 cd3c a5dd 65bc
00000270: 6b69 c5bc 3e49 a23c 6965 96bd b999 873c
00000280: 7c42 3fbd 0554 883c 72f0 b33b b146 a0bd
00000290: 76c7 78bb 5d7f a63d f94e e8bc f315 c9bc
000002a0: 4baa 373b b84e 713d 5626 29bd db7e 24bd
000002b0: c0b7 813d 2426 803d 61c9 c03b f577 d2ba
000002c0: f0a8 9e3d f13d 723d 603b e7bc 6a4f 833d
000002d0: 0d07 88ba 026f 90ba a1a4 953d 6a04 82bd
000002e0: 768a 38bc 9992 a1bc 1a30 7c3c 982d 823d
000002f0: 068a 2b3d 625a 29bb 040f 953d ea54 aabc
00000300: 6c50 8d3c ff31 3d3c b39e 2c3d 0093 473d
00000310: 5bea ddbc 1ba5 8c3d cdc7 983d 2d6d 9738
00000320: e63e 0e3d 1b1f fe3c 6abe 923c 14c9 17bd
00000330: 27ea 133d b07b 853d a689 613a 89df ba3d
00000340: 4a4e fcbb 61eb 76bb dde6 6e3d 1102 563c
00000350: 11fa 0b3d 2e10 953d c563 603d fdbb bebb
00000360: 9043 073d 2113 e03d 55de f7bc 1a92 93bc
00000370: 6d16 9f3d 91fd 72bc f22b 8dbc f528 6ebd
00000380: d2cc 213c b08a 523d c098 a23d 11b5 cf3c
00000390: b454 983d 728f 95bd 58b4 d4bc 4172 3c3d
000003a0: 0245 2e3c ebdf 003c c401 413d 251b 15bd
000003b0: 5f51 a63d 63fd 633d 7fbd 603c c209 4bbc
000003c0: 67ca 5a3d 669b 8eba ce29 e93c a61d 15bc
000003d0: caf2 ef3c 405c d7bc bf86 c33c fe6d 73bd
000003e0: f3a5 0f3d c334 87bb 8439 81bd 62ae 8a3c
000003f0: 9de3 8e3d 5949 273c a829 0f3c bcb1 11bd

fc2.bias f4 [128]
-0.013778797 0.04091081 0.03614913 0.035594158 -0.0034830163 0.008019649 0.032523002 0.02419278
-0.00826357 -0.0009908348 0.037625555 -0.0087070605 0.043044005 0.027335122 0.04993931 0.024216099
0.0008684492 0.008116669 0.03213109 0.023096683 0.028007736 0.059224278 0.008344129 0.03880221
0.016275223 0.02432094 0.03249244 -0.021951493 -0.024692722 0.041624483 0.0029462145 -0.0003752793
-0.018191706 -0.014968602 0.046187304 0.065987945 0.028587183 0.0010193163 -0.0016907306 0.05459364
0.06613089 0.020751849 0.03290263 0.01789228 0.030612675 0.027859535 0.041326255 -0.01177866
-0.00045846362 -0.0015623664 0.06501609 -0.0062532113 0.0061322255 0.04820755 -0.0021682498 -0.01360753
0.023168618 0.057451747 0.04472024 0.0048572393 0.03838403 0.048940107 0.04399249 0.004100929
0.044020537 -0.0074316664 0.03737851 0.03375153 0.013660687 -0.014625974 0.0027175497 0.033867564
0.02428448 -0.0134396935 0.03232205 0.021694206 0.016372444 0.02654904 0.018107334 0.05605213
0.048005253 0.03132304 0.0370874 0.019856408 0.028794667 0.0483226 0.034208447 0.021398976
-0.011223721 0.017703272 0.0132274795 0.04286904 -0.019982899 0.017840391 -0.017657416 0.012025473
0.0017778277 -0.016944667 0.025234085 0.03817601 -0.04330906 -0.023163585 0.011753722 0.03454694
0.025231179 0.061458074 0.014092515 0.018143972 0.018648561 0.05749795 0.024265764 0.020083133
0.04372712 0.043415323 0.028754478 0.016071027 0.04826003 0.014633343 0.0030261516 -0.023008902
0.043972403 0.02994354 -0.02896216 0.008358422 0.032426517 0.015227566 0.044068545 0.027345315
00000000: 77c0 61bc 1892 273d 1c11 143d 2ecb 113d
00000010: 5143 64bb d964 033c d736 053d f02f c63c
00000020: ed63 07bc e6de 81ba 411d 1a3d 0fa8 0ebc
00000030: e94e 303d e8ed df3c 298d 4c3d d760 c63c
00000040: a4a8 633a c7fb 043c e49b 033d 4135 bd3c
00000050: 7b70 e53c 2895 723d d0b5 083c 11ef 1e3d
00000060: 9e53 853c b53c c73c cb16 053d 9ed3 b3bc
00000070: 6448 cabc 6f7e 2a3d 4715 413b 23c1 c4b9
00000080: c606 95bc de3e 75bc e62e 3d3d b024 873d
00000090: ab2f ea3c 949a 853a 819b ddba 959d 5f3d
000000a0: a26f 873d c8ff a93c e8c4 063d d592 923c
000000b0: 6fc7 fa3c ae39 e43c b845 293d 48fb 40bc
000000c0: f25d f0b9 51c8 ccba 2827 853d bde7 ccbb
000000d0: d6f0 c83b 4875 453d 3219 0ebb 1ef2 5ebc
000000e0: 1dcc bd3c 8652 6b3d 922c 373d 7a29 9f3b
000000f0: 9338 1d3d 6c75 483d 7831 343d 1661 863b
00000100: e14e 343d 5685 f3bb 351a 193d 0b3f 0a3d
00000110: 13d1 5f3c c8a1 6fbc eb18 323b b7b8 0a3d
00000120: 3ff0 c63c 2932 5cbc 2064 043d 0cb8 b13c
00000130: 811f 863c 5f7d d93c d555 943c eb96 653d
00000140: 28a1 443d 974c 003d f5e8 173d e8a9 a23c
00000150: cbe2 eb3c ebed 453d 281e 0c3d e84c af3c
00000160: b3e3 37bc 7406 913c 12b8 583c 7297 2f3d
00000170: 2db3 a3bc 0326 923c 49a6 90bc 7d06 453c
00000180: 0006 e93a 8bcf 8abc b6b7 ce3c 735e 1c3d
00000190: d764 31bd 8fc1 bdbc af92 403c 1881 0d3d
000001a0: 9eb1 ce3c 76bb 7b3d 4be4 663c aba2 943c
000001b0: dec4 983c f882 6b3d ffc8 c63c 6285 a43c
000001c0: 351b 333d 44d4 313d 838e eb3c 63a7 833c
000001d0: 4fac 453d b0c0 6f3c 6652 463b 2a7d bcbc
000001e0: 681c 343d 284c f53c 0d42 edbc c3f1 083c
000001f0: abd1 043d 0a7d 793c 3881 343d 4803 e03c

fc3.weight f4 [7, 128]
0.03317551 0.086904556 -0.049960926 0.032512575 0.07895628 0.034910437 0.060975503 0.027946621
-0.024099836 -0.08131489 -0.016271414 -0.0008284055 -0.111765526 -0.052062266 0.049737964 -0.088869125
-0.04069523 -0.010305678 0.08049465 -0.102358006 0.09167053 0.048021242 -0.03880919 -0.11752265
-0.0017175712 0.062127274 0.039978705 0.06080715 0.098563686 -0.015237322 0.035856474 -0.0033911273
0.055543095 -0.057754554 -0.07212958 -0.10375572 -0.015220748 0.040795624 -0.033585556 -0.10655053
-0.11856863 0.06666905 -0.06337334 -0.09068608 0.068461716 0.034420297 0.050231524 0.06016143
-0.031597152 0.09102093 -0.080418065 0.01603022 -0.06060309 -0.007395996 -0.11330048 -0.044669706
0.027767405 0.084824786 0.011694094 0.05769473 -0.020939635 -0.030855153 -0.05222661 -0.01550589
0.06784715 -0.007945033 -0.016854728 -0.08913591 0.00035884228 -0.0545815 -0.05075645 -0.012494129
0.018135777 -0.028778745 -0.09938733 -0.044605438 -0.048508625 0.09135353 -0.10566864 0.049073923
-0.06572942 -0.05785901 0.037850562 0.04035818 0.070123136 -0.081520855 0.07052399 -0.0576407
0.10002725 -0.026080268 -0.07263689 0.015516714 0.04575969 0.012549026 0.041876294 -0.07297107
0.059552066 -0.026732825 0.00071321917 -0.1032556 -0.0077175964 0.040007688 -0.028408503 -0.07142049
-0.09622738 -0.058829505 0.06999814 0.013717883 -0.09735896 -0.09076276 -0.04655409 -0.08861356
-0.061687745 0.020511156 0.104507945 0.017428705 -0.046949543 0.0697899 0.08352403 -0.024549443
0.03961823 0.035585437 0.043750275 0.09986582 0.083024904 0.04519901 0.070105396 0.005199069
-0.02958316 0.07664346 -0.03573207 -0.07008833 0.076070555 -0.09164135 0.07803657 0.038481496
-0.06153841 0.056324095 -0.046524905 0.07451468 -0.080926225 -0.023058236 0.056616344 0.015538052
-0.008206167 -0.060034953 0.066257 -0.020697339 0.06910875 0.0137531785 -0.030250218 -0.030867096
-0.008915144 0.094472624 -0.057814274 -0.011156611 0.07551362 -0.0062734475 0.10478652 -0.1125313
-0.04210325 -0.042629734 -0.03730517 -0.07915097 -0.062615834 0.03013991 -0.036883276 -0.009421907
-0.10502998 0.047600392 -0.0025056659 -0.023140451 0.06996585 0.08797937 0.05301531 0.042055715
-0.06327007 0.030966837 -0.088567935 0.043368995 0.038091324 0.059801515 0.018072821 0.026455622
0.032383267 0.05582049 0.07014974 -0.022287965 0.07924688 0.044351038 -0.10903043 0.0702054
0.028877128 -0.078950554 -0.07493514 0.011904504 -0.0828983 -0.08229135 0.0013973138 0.047098372
0.041688 0.043480318 -0.08881676 -0.10693467 -0.028970774 0.050860003 -0.10157391 0.06035283
-0.021222048 -0.018290589 0.04458246 0.071293764 0.02689527 -0.07776087 0.03961739 0.042315792
0.021584945 -0.097018614 -0.058875475 0.04110515 0.06758316 0.06321005 0.0073380903 -0.035560127
0.03223538 -0.029042963 -0.07411921 -0.03620325 0.023232605 0.00654519 0.051829554 -0.07517794
-0.09745416 -0.108300805 -0.032162175 0.049595963 -0.09242844 -0.040019285 -0.11425317 -0.085168555
-0.09618551 -0.024718367 0.016766168 -0.067035 0.03668829 0.069148086 0.03193294 0.08603434
0.06059542 0.05982874 0.09184396 0.044835936 0.03255241 0.06249445 0.033901244 -0.035364397
00000000: 0be3 073d 04fb b13d d4a3 4cbd e82b 053d
00000010: d5b3 a13d 3ffe 0e3d 73c1 793d 50f0 e43c
00000020: 056d c5bc 6c88 a6bd a14b 85bc 5a29 59ba
00000030: 53e5 e4bd 3e3f 55bd 09ba 4b3d 0401 b6bd
00000040: 0bb0 26bd 25d9 28bc 61da a43d 13a1 d1bd
00000050: c2bd bb3d ecb1 443d 63f6 1ebd b7af f0bd
00000060: 2020 e1ba 2b79 7e3d b6c0 233d eb10 793d
00000070: c2db c93d f6a5 79bc 3dde 123d ad3d 5ebb
00000080: 2881 633d 0a90 6cbd acb8 93bd e17d d4bd
00000090: 7260 79bc 5019 273d 0291 09bd 2a37 dabd
000000a0: 1cd4 f2bd c889 883d e2c9 81bd a0b9 b9bd
000000b0: a835 8c3d 4cfc 0c3d 92bf 4d3d d56b 763d
000000c0: 046c 01bd 2e69 ba3d 3ab2 a4bd cf51 833c
000000d0: f23a 78bd 1c5a f2bb 150a e8bd 95f7 36bd
000000e0: 7878 e33c 9eb8 ad3d 9698 3f3c 4f51 6c3d
000000f0: 9989 abbc f2c3 fcbc 92eb 55bd 6b0c 7ebc
00000100: 72f3 8a3d e22b 02bc ed12 8abc e38c b6bd
00000110: ff22 bc39 da90 5fbd ffe5 4fbd 2db4 4cbc
00000120: 7b91 943c 67c1 ebbc 968b cbbd 31b4 36bd
00000130: fbb0 46bd 8f17 bb3d cd68 d8bd bd01 493d
00000140: 259d 86bd 92fd 6cbd 3109 1b3d 9e4e 253d
00000150: b89c 8f3d 68f4 a6bd e26e 903d a818 6cbd
00000160: 16db cc3d 49a6 d5bc a6c2 94bd d139 7e3c
00000170: 836e 3b3d 6e9a 4d3c 7a86 2b3d db71 95bd
00000180: deec 733d ccfe dabc 54f7 3a3a ac77 d3bd
00000190: e4e3 fcbb 1adf 233d f3b8 e8bc e844 92bd
000001a0: dc12 c5bd 35f7 70bd 2f5b 8f3d f9c0 603c
000001b0: 2264 c7bd d3e1 b9bd 80af 3ebd 077b b5bd
000001c0: 4aac 7cbd 0307 a83c 4308 d63d a5c6 8e3c
000001d0: 2a4e 40bd 02ee 8e3d a60e ab3d ea1b c9bc
000001e0: ba46 223d 09c2 113d 7d33 333d 7386 cc3d
000001f0: f608 aa3d 9922 393d 6b93 8f3d f45c aa3b
00000200: 6258 f2bc 3ff7 9c3d cb5b 12bd 788a 8fbd
00000210: e1ca 9b3d 76ae bbbd a3d1 9f3d c69e 1d3d
00000220: b30f 7cbd 18b4 663d e690 3ebd 279b 983d
00000230: a6bc a5bd a0e4 bcbc 8ae6 673d 5093 7e3c
00000240: 2973 06bc 36e7 75bd c0b1 873d 778d a9bc
00000250: e388 8d3d 0355 613c 4ecf f7bc fedc fcbc
00000260: d310 12bc dd7a c13d a9ce 6cbd 38ca 36bc
00000270: e3a6 9a3d 7e91 cdbb 519a d63d cf76 e6bd
00000280: 7574 2cbd 849c 2ebd 4ecd 18bd e719 a2bd
00000290: bb3c 80bd f9e7 f63c eb12 17bd 585e 1abc
000002a0: f519 d7bd a1f8 423d 1936 24bb 0b91 bdbc
000002b0: 414a 8f3d 872e b43d 9526 593d 9d42 2c3d
000002c0: bd93 81bd 2aae fd3c 1b63 b5bd b0a3 313d
000002d0: a605 1c3d 6ff2 743d 740d 943c 76b9 d83c
000002e0: 51a4 043d 07a4 643d abaa 8f3d 4095 b6bc
000002f0: 304c a23d 6fa9 353d 594b dfbd d9c7 8f3d
00000300: ba8f ec3c d4b0 a1bd 9877 99bd 1c0b 433c
00000310: 95c6 a9bd 5e88 a8bd 1226 b73a 39ea 403d
00000320: 09c1 2a3d 6b18 323d 90e5 b5bd 9000 dbbd
00000330: 1e54 edbc 9452 503d fb05 d0bd 8734 773d
00000340: dcd9 adbc 25d6 95bc 199c 363d 7702 923d
00000350: 7853 dc3c 1741 9fbd d845 223d 5353 2d3d
00000360: e9d2 b03c b2b1 c6bd 6927 71bd e05d 283d
00000370: 0a69 8a3d 4574 813d 5d74 f03b 7fa7 11bd
00000380: 3f09 043d 82eb edbc d0cb 97bd dc49 14bd
00000390: 4e52 be3c 0879 d63b 3a4b 543d e4f6 99bd
000003a0: 0c96 c7bd d0cc ddbd 7cbc 03bd 2325 4b3d
000003b0: 1f4b bdbd 43eb 23bd 91fd e9bd da6c aebd
000003c0: e9fc c4bd 2c7e cabc 3459 893c a549 89bd
000003d0: 7646 163d 839d 8d3d 1dcc 023d c632 b03d
000003e0: e732 783d fb0e 753d b018 bc3d e3a5 373d
000003f0: ad55 053d 2efa 7f3d 08dc 0a3d 42da 10bd

fc3.bias f4 [7]
-0.016217342 -0.025586195 -0.016282514 0.013363929 -0.0027879057 -0.031418502 -0.021604188
00000000: 3bda 84bc 249a d1bc e862 85bc 62f4 5a3c
00000010: 4cb5 36bb b0b0 00bd 44fb b0bc
