weights/98wr_cnn_b.pt (torch, 406694 bytes, 6 tensors)

conv.weight f4 [128, 1, 4, 4]
0	0x3eed2ad0	0.46321726
1	0x3dac056c	0.08399472
2	0xbdb49442	-0.088173404
3	0xbc80256a	-0.01564284
4	0xbe9b59c9	-0.30341938
5	0x3d80d743	0.06291058
6	0xbda676ff	-0.081281655
7	0x3ba2c110	0.0049668625
8	0x3ee21c54	0.44162238
9	0xbce3e460	-0.027818859
10	0x3cbc1c2e	0.022962656
11	0xbd191a06	-0.037378334
12	0xbebd556f	-0.36979243
13	0xbe1689e2	-0.14701036
14	0x3e073635	0.13204272
15	0x3d681a03	0.05666543
16	0xbeb41854	-0.3517481
17	0x3de8993f	0.113573544
18	0xbbb69185	-0.0055715465
19	0x3d81161b	0.063030444
20	0xbeaa1764	-0.3322097
21	0x3d0cc8d3	0.03437121
22	0x3df912f7	0.121618204
23	0xbe1cb8e4	-0.15304905
24	0xbb5ad1e0	-0.0033389255
25	0xbe306fbc	-0.17230123
26	0x3d7def49	0.06199578
27	0x3dfb8c71	0.122826464
28	0x3e8b7a80	0.27241898
29	0xbebfa590	-0.37431002
30	0xbdffdf02	-0.12493707
31	0xbe117772	-0.14205721
32	0xbdf6fe6b	-0.12060245
33	0x3d385e23	0.04501165
34	0xbece6722	-0.4031306
35	0x3e336958	0.17520654
36	0x3d0706d9	0.032965515
37	0x3e0b81da	0.13623753
38	0x3de8f6bf	0.11375188
39	0xbe55ad6c	-0.20866936
40	0x3e137e3f	0.14403628
41	0xbe56d56c	-0.20979851
42	0x3d834616	0.06409852
43	0x3e30b6f3	0.1725729
44	0xbec95f9f	-0.39330766
45	0x3e62dcd0	0.22154546
46	0xbc966ea1	-0.018363299
47	0x3e7f995c	0.24960846
48	0xbd0f1540	-0.034932375
49	0xbe0f287d	-0.13980289
50	0xbe1fed89	-0.15617956
51	0xbd83e49e	-0.0644009
52	0x3c7f144d	0.015568805
53	0x3cd5b8df	0.02608913
54	0xbd12edc1	-0.03587127
55	0xbe3f67de	-0.18691966
56	0xbd791e59	-0.060819957
57	0x3ce7dcc6	0.028303515
58	0x3b4eb8f3	0.0031543344
59	0xbe10dc9e	-0.14146659
60	0x3ef238be	0.47308916
61	0x3ef0d279	0.47035578
62	0x3ef164b8	0.47147155
63	0xbe34a391	-0.1764052
64	0xbce1a324	-0.027543612
65	0xbc4e1106	-0.012577301
66	0x3e3e71dc	0.18598121
67	0x3ecd474b	0.40093455
68	0x3e55bc18	0.20872533
69	0xbe517ccc	-0.20457762
70	0x3e61e5e3	0.22060351
71	0x3dbc682e	0.09199558
72	0xbc798430	-0.01522927
73	0xbea81b74	-0.32833445
74	0xbde27238	-0.11056942
75	0x3e0bc489	0.13649191
76	0x3eb7d3fd	0.35903922
77	0x3dcb3f6c	0.09924206
78	0x3e63c018	0.22241247
79	0x3d7a6f8f	0.061141547
80	0x3e59c198	0.21265256
81	0x3d184282	0.0371728
82	0xbe68c121	-0.22729923
83	0x3e739c51	0.23790099
84	0x3ea1f14b	0.31629404
85	0xbdeb3838	-0.11485332
86	0x3e5a32bf	0.2130842
87	0x3e8c832d	0.2744383
88	0x3e0f4d53	0.1399434
89	0xbd8a02ae	-0.06738792
90	0xbe2d5922	-0.16928533
91	0x3d729f0e	0.059233718
92	0x3e4ca376	0.1998423
93	0xbc9e63af	-0.019334642
94	0xbd5f84b5	-0.05456992
95	0xbf0567bb	-0.52111405
96	0xbe425f20	-0.189816
97	0xbdac2162	-0.08404805
98	0xbe5f793e	-0.21823594
99	0xbe78a403	-0.24281316
100	0xbdf173d1	-0.11789668
101	0x3e2f1e28	0.17101347
102	0x3d11751d	0.03551208
103	0xbe072594	-0.13197929
104	0x3dc8fb40	0.09813547
105	0xbe813b26	-0.2524044
106	0x3dcfd235	0.10147516
107	0xbe562325	-0.20911844
108	0x3c16b14d	0.009197545
109	0x3e851264	0.25990593
110	0x3eb11db0	0.34592962
111	0xbec79bd5	-0.38986078
112	0xbe7f3a44	-0.2492457
113	0x3e851939	0.25995806
114	0xbcdccefe	-0.02695417
115	0xbc1f8464	-0.009736154
116	0x3e2485d1	0.16066672
117	0xbdf22341	-0.118231304
118	0xbdc5b960	-0.09654498
119	0x3e3faa15	0.18717225
120	0xbe6667f9	-0.225006
121	0x3e146f02	0.14495471
122	0x3c2b1283	0.010441425
123	0xbd8c880e	-0.06861888
124	0xbd624b16	-0.05524739
125	0xbb4accaa	-0.0030944743
126	0xbf195271	-0.5989142
127	0xbe0d0558	-0.1377157
128	0x3d1bb4a4	0.03801407
129	0xbe029506	-0.1275216
130	0xbdac32df	-0.084081404
131	0x3e41ca90	0.18924928
132	0xbd0935d6	-0.033498608
133	0x3d21f853	0.03954346
134	0x3d361fa6	0.044463776
135	0x3ec176cb	0.37785944
136	0x3d5758f9	0.052575085
137	0xbe58bfee	-0.21166965
138	0x3d65393f	0.055962797
139	0x3eaf4eaa	0.34239703
140	0xbe2591fa	-0.16168967
141	0x3e447220	0.1918416
142	0x3e64b2cf	0.22333835
143	0xbda992da	-0.08279963
144	0xbd91a7b0	-0.07112062
145	0x3de88477	0.11353391
146	0xbe92b504	-0.2865373
147	0x3d2459c7	0.04012468
148	0x3d769d5f	0.060208675
149	0xbe8f7671	-0.2802005
150	0xbd99e0b5	-0.075135626
151	0xbd8943ef	-0.067024104
152	0x3da244d3	0.079232834
153	0x3e124678	0.14284694
154	0x3e824716	0.2544486
155	0x3d64130b	0.055682223
156	0x3e100e7e	0.14068028
157	0xbe12cd0e	-0.14336035
158	0xbe70379b	-0.23458712
159	0x3eb64adf	0.35603997
160	0x3e49adc7	0.19695197
161	0xbdb858d2	-0.09001316
162	0x3dcf002f	0.10107457
163	0x3bca875c	0.006180687
164	0x3d406d0c	0.046978995
165	0x3ddf74b5	0.10910932
166	0xbc1a67fc	-0.009424206
167	0x3d96eeb2	0.07369746
168	0x3e9fd5b3	0.31217727
169	0x3d428257	0.047487583
170	0x3df8f171	0.12155426
171	0x3dcbd2a8	0.09952289
172	0xbf072759	-0.52794415
173	0x3e32de5f	0.1746764
174	0xbcc99a8c	-0.024609827
175	0x3b1d1201	0.002396703
176	0x3de71017	0.11282366
177	0xbdab3b66	-0.08360939
178	0x3dd5900a	0.10427864
179	0xbe1ee491	-0.15516879
180	0xbdab8460	-0.08374858
181	0x3de538ef	0.111925
182	0x3e5cbe76	0.2155703
183	0xbe5645d1	-0.2092507
184	0xbe6414e1	-0.2227359
185	0xbd376a57	-0.044779148
186	0x3ea68e91	0.32530645
187	0xbe4a6238	-0.1976403
188	0xbcd2dc29	-0.025739746
189	0xbe2c0733	-0.16799621
190	0x3d35c522	0.044377454
191	0x3f0538d9	0.5203987
192	0xbe0d1299	-0.13776626
193	0x3c6f5c9a	0.01460948
194	0x3e2b57c5	0.167327
195	0x3ddf38a3	0.108994745
196	0xbd138014	-0.036010817
197	0x3e355acd	0.17710419
198	0xbb16d382	-0.0023014252
199	0xbd8342ef	-0.06409251
200	0x3d2aac67	0.041668322
201	0x3d83c410	0.0643388
202	0xbd36b828	-0.04460922
203	0x3d94b46f	0.072609775
204	0x3eb51bc8	0.35372758
205	0xbe44bcf6	-0.19212708
206	0x3ef44ce2	0.47714907
207	0xbe3837d8	-0.17990053
208	0xbe627e13	-0.22118406
209	0xbe9f87e5	-0.31158367
210	0x3ba17e3c	0.0049283784
211	0x3dd8aeee	0.1058024
212	0x3efc458d	0.49271813
213	0x3e8296b9	0.25505617
214	0xbea05a7f	-0.31319043
215	0xbe69e637	-0.22841726
216	0xbdb33b97	-0.087516
217	0xbd96f0fb	-0.07370182
218	0x3d86e8ae	0.06587349
219	0xbe382002	-0.1798096
220	0xbe24cefe	-0.16094586
221	0xbd1c6672	-0.038183637
222	0x3da3ecff	0.08004188
223	0xbe5c3c52	-0.21507385
224	0x3e3bd7c4	0.18344027
225	0x3bd05f50	0.0063590184
226	0x3ace4a12	0.0015738627
227	0x3e714a51	0.23563506
228	0xbd972d4a	-0.07381685
229	0xbe0ddb38	-0.13853157
230	0x3d307b6f	0.043086465
231	0x3abdfd53	0.0014495052
232	0x3e33cc24	0.17558342
233	0x3e328624	0.17433983
234	0x3ded5c2d	0.11589847
235	0x3ea281e1	0.31739715
236	0x3bcf7c54	0.0063319597
237	0x3e62545f	0.22102498
238	0x3ea88957	0.32917282
239	0x3e7f8810	0.24954247
240	0xbdbb4eea	-0.09145911
241	0xbe07064c	-0.13185996
242	0x3eddae03	0.43296823
243	0x3e7d62b2	0.2474468
244	0x3eb96e3c	0.36216915
245	0x3e99e2d5	0.30055872
246	0xbeb30c8c	-0.3497051
247	0x3db66632	0.08906211
248	0x3e2bdc0c	0.1678316
249	0x3de8695f	0.11348223
250	0xbe1711ac	-0.14752835
251	0xbe3f1797	-0.18661343
252	0x3e814d0c	0.25254095
253	0xbdd83604	-0.10557178
254	0x3db8a8c3	0.09016564
255	0x3ea14f52	0.3150583

conv.bias f4 [128]
0	0xbdb7b4c8	-0.08970028
1	0x3e03d5bd	0.12874503
2	0x3e1a4b84	0.1506787
3	0xbe4ac8e4	-0.19803196
4	0xbdad8d08	-0.08474165
5	0xbd658cd8	-0.056042522
6	0xbd8bb8c7	-0.06822353
7	0x3b729127	0.0037012787
8	0x3df423d6	0.11920898
9	0x3de2bc5a	0.110710815
10	0xbe584ce0	-0.21123075
11	0xbe9d0857	-0.30670425
12	0xbdc79cbc	-0.097466916
13	0xbe22f9d8	-0.1591562
14	0x3e1e7ee5	0.15478094
15	0xbe6442c0	-0.22291088
16	0x3e87bf9a	0.26513368
17	0xbe94ce62	-0.29063708
18	0xbe5fadcd	-0.21843643
19	0x3e4c51a6	0.19953021
20	0x3c5c67ac	0.013452452
21	0x3dded393	0.10880198
22	0xbf2dc5e1	-0.67880064
23	0xbe559802	-0.20858768
24	0xbe8085d3	-0.251021
25	0x3d4a5b1f	0.049403306
26	0xbecf7178	-0.40516257
27	0xbe90f117	-0.28308937
28	0xbe8a074f	-0.269587
29	0x3e6aaee4	0.22918278
30	0x3e74a2d6	0.23890242
31	0x3c74e0e5	0.014946197
32	0xbd78f134	-0.060776904
33	0xbe89bbfd	-0.26901236
34	0xbe139856	-0.1441358
35	0x3c8a8b5a	0.016912151
36	0xbea960d4	-0.33081686
37	0xbec18ea9	-0.37804154
38	0xbe51fc95	-0.20506509
39	0xbf2734ea	-0.65315115
40	0xbeb277d4	-0.34857047
41	0xbe5aa6c5	-0.2135268
42	0xbdd68aed	-0.10475717
43	0x3da8b64c	0.08237895
44	0x3e85e437	0.26150677
45	0x3e85b1e0	0.2611227
46	0xbeb84ee8	-0.359977
47	0x3dcddc20	0.10051751
48	0xbec3f8c3	-0.38275728
49	0xbecab695	-0.39592424
50	0xbe5261f5	-0.2054518
51	0xbebbb1d4	-0.3665911
52	0xbe70f729	-0.23531784
53	0x3dfff772	0.12498368
54	0xbe8ad99b	-0.27119145
55	0x3e1d5bbc	0.15367025
56	0x3e327787	0.17428409
57	0x3e0a083e	0.13479707
58	0xbe68ef8f	-0.22747634
59	0xbd1e0b96	-0.038585268
60	0x3ca9bfb9	0.020721303
61	0xbcf0fae5	-0.02941651
62	0xbe5061b5	-0.20349772
63	0x3c5986c5	0.0132767605
64	0xbe8d4a7a	-0.27595884
65	0xbe6bfebf	-0.23046397
66	0xbc121156	-0.008915266
67	0xbea7513f	-0.32679173
68	0x3e97a700	0.29619598
69	0x3c34e114	0.011039991
70	0xbe08bb55	-0.13352711
71	0xbe82bc46	-0.25534266
72	0x3c7d5b51	0.015463666
73	0xbdc0c86c	-0.094132274
74	0xbe97e164	-0.29664147
75	0xbe9df395	-0.308499
76	0xbd6688d1	-0.056282822
77	0xbea9d544	-0.3317052
78	0xbe7f18da	-0.24911824
79	0x3e3284f8	0.17433536
80	0xbeaeb5b1	-0.34122995
81	0x3dc7cc10	0.09755719
82	0x3e73a7be	0.23794457
83	0xbd2f5c71	-0.04281277
84	0x3ceced4c	0.028921746
85	0x3d056064	0.03256263
86	0xbea226be	-0.31670183
87	0x3e8e6637	0.2781236
88	0x3db7a7e5	0.0896757
89	0xbe57cd9e	-0.2107453
90	0xbd569d18	-0.05239591
91	0xbd80de30	-0.06292379
92	0x3d11cfad	0.035598446
93	0xbe049bd3	-0.12950067
94	0xbe16348c	-0.14668483
95	0x3e80e45a	0.25174218
96	0x3e2ae5d8	0.16689241
97	0x3e4a30b3	0.1974514
98	0x3e74c84f	0.23904537
99	0xbc72b271	-0.014813052
100	0xbe8291e9	-0.25501946
101	0x3e3357d3	0.17513971
102	0x3c942d5e	0.018088039
103	0x3e60a1ae	0.21936676
104	0x3e25aa4d	0.16178246
105	0xbe61fde0	-0.22069502
106	0x3e818927	0.2529995
107	0xbe8b7627	-0.2723858
108	0xbe947e4c	-0.29002607
109	0x3d3c0bb5	0.045909602
110	0x3e75f365	0.24018629
111	0xbe966a84	-0.2937814
112	0x3e2e85c0	0.17043209
113	0xbcc7e597	-0.02440147
114	0xbeaabcba	-0.33347112
115	0xbd7caaf2	-0.061686464
116	0xbed6ff32	-0.41991574
117	0x3b81a7b8	0.003956761
118	0x3e014a9f	0.12626122
119	0xbe76dac3	-0.24106888
120	0x3e6fffef	0.23437475
121	0xbe760d43	-0.24028496
122	0x3e3dcfe7	0.1853634
123	0xbe02602f	-0.12732004
124	0x3d44923b	0.04799102
125	0xbec21ed7	-0.37914154
126	0xbe9a2dba	-0.30113012
127	0x3e331e5d	0.17492051

fc1.weight f4 [64, 1536]
0	0xbbaa3a49	-0.0051949364
1	0xbd3b355b	-0.04570518
2	0xbcf3e279	-0.029771077
3	0xbc9cff8d	-0.019164825
4	0x3aa47f75	0.0012550192
5	0xbcfa5b52	-0.030561123
6	0xbc9bcd9f	-0.019018946
7	0x3c809f5f	0.015700994
8	0xbd9b0747	-0.075697474
9	0xbd0b9021	-0.034073
10	0xbda6e96a	-0.08149989
11	0xbc356c46	-0.011073178
12	0x3d0a4dd7	0.03376564
13	0x3c14e6f8	0.00908827
14	0x3d6e7847	0.058220174
15	0x3d583733	0.052787017
16	0x3d37d4cd	0.044880677
17	0x3cbf00f5	0.023315886
18	0x3b4e6020	0.00314904
19	0x3d259745	0.040427465
20	0x3cf19bac	0.029493175
21	0xbc94b1f7	-0.018151267
22	0x3b8b1d0d	0.0042454065
23	0x3d75ac4c	0.05997877
24	0xbcb8dd7a	-0.022566546
25	0x3cbedb5a	0.023297954
26	0x3d069b23	0.032862794
27	0x3bce216b	0.006290605
28	0xbc2252cb	-0.009907435
29	0xbcf4b40d	-0.029871011
30	0x3d1ef929	0.038811836
31	0x3d089957	0.03334936
32	0xbd033cc2	-0.032040365
33	0x3d3bc8b9	0.04584572
34	0xbc6188fc	-0.01376557
35	0xbcbd89d9	-0.02313702
36	0x3bf4ace8	0.007466901
37	0x3bdf830e	0.006821043
38	0xbbdf73f7	-0.006819244
39	0xbd4666b9	-0.048437808
40	0xbd3cd69f	-0.046103116
41	0xbd674f73	-0.056472253
42	0xbc0d8b03	-0.0086391
43	0x3d0a4768	0.033759505
44	0x3d76e134	0.060273364
45	0xbcca705a	-0.024711777
46	0xbc32daf0	-0.010916457
47	0x3da96bff	0.08272552
48	0x3d78db85	0.060756225
49	0x3c37eff8	0.011226647
50	0xbcc3b721	-0.023891034
51	0xbb42d1fb	-0.002972721
52	0x3d8380a0	0.06421018
53	0x3c12cc25	0.008959805
54	0x3c326f12	0.010890739
55	0xbc46f976	-0.012144437
56	0x3d2026fa	0.03909967
57	0xbdc546be	-0.096326336
58	0xbb681d74	-0.0035417946
59	0xbd29000a	-0.041259803
60	0x3c8f5d37	0.017500503
61	0x3d399be6	0.045314692
62	0xbd29c3bf	-0.041446444
63	0x3d247cdc	0.040158138
64	0x3d42e001	0.047576908
65	0x3d5454be	0.05183863
66	0xbc931685	-0.017955074
67	0x3c574475	0.01313888
68	0xbbb72d03	-0.0055900826
69	0x3c2fe311	0.010735289
70	0x3caeb33a	0.021325696
71	0x3d9c750f	0.07639515
72	0xbc9821c8	-0.018570796
73	0x3da98e67	0.08279114
74	0xbd3d5af7	-0.04622933
75	0xbdc53fd5	-0.096313156
76	0xbcf4da7c	-0.029889338
77	0xbb6b2808	-0.0035882015
78	0xbc9b9a59	-0.018994497
79	0x3b724eb5	0.0036973183
80	0x3beea30d	0.0072826208
81	0xbcb535d7	-0.0221204
82	0x3d079549	0.033101354
83	0x3bacdb8d	0.005275196
84	0xbdbfef48	-0.09371811
85	0x3d40a109	0.047028575
86	0x3b6a5aa4	0.0035759592
87	0x3bcedfdb	0.0063133067
88	0xbb8373d4	-0.0040116105
89	0x3cde8bac	0.02716621
90	0xbcd0003b	-0.025390735
91	0x3c8a9bc0	0.01691997
92	0x3d3e1483	0.04640628
93	0x3b48100b	0.003052714
94	0x3c35fab3	0.011107135
95	0x3c89fb0d	0.016843343
96	0xbd410e6b	-0.04713289
97	0x3d46693d	0.048440207
98	0xbc93368f	-0.017970352
99	0xbd481efb	-0.04885767
100	0xbd275102	-0.04084874
101	0x3cf7ed7a	0.030264605
102	0xbd386056	-0.045013748
103	0xbd431944	-0.047631517
104	0x3a81fc7e	0.0009917167
105	0xbd44f5a1	-0.048085812
106	0xbbc722ee	-0.006077162
107	0xbc93902c	-0.018013082
108	0x3d8051f0	0.06265628
109	0xbd21b800	-0.039482117
110	0x3bdf5c5f	0.0068164314
111	0xbd3449b1	-0.04401559
112	0x3c6cb470	0.0144473165
113	0x3ab9e97d	0.0014183965
114	0x3d0ef3fe	0.034900658
115	0x3ce79f92	0.028274331
116	0xbbc9947d	-0.0061517344
117	0x3d6e9dee	0.058256082
118	0xbb6e36c1	-0.0036348554
119	0xbd32280f	-0.043495234
120	0x3c631332	0.013859557
121	0xbced4d1a	-0.028967429
122	0xbe0419f3	-0.12900524
123	0xbd42334e	-0.04741221
124	0x3d350050	0.04418975
125	0xbd3e6ce9	-0.046490584
126	0xbc810c10	-0.015752822
127	0xbd53a5bd	-0.051671732
128	0xbc5ddb4f	-0.013541057
129	0xbd334c2f	-0.043773826
130	0x3d4c8873	0.049934816
131	0xbd13fab6	-0.03612777
132	0xbbdbc10b	-0.006706362
133	0xbc9a9f52	-0.018874798
134	0xbd674c06	-0.056468986
135	0xbd3be594	-0.04587324
136	0xbc0701cc	-0.0082401745
137	0x3bd40b50	0.006471075
138	0xbd2a18be	-0.041527502
139	0xbc2d91db	-0.010593857
140	0x3d92d0bd	0.0716872
141	0x3c0c2297	0.008553169
142	0xbd3a9a9f	-0.045557614
143	0xbd37c775	-0.04486795
144	0x3b98327d	0.0046446905
145	0xbb33b2f3	-0.0027419894
146	0xbd08ecd2	-0.033428974
147	0xbcf8b6df	-0.030360637
148	0x3ba0959a	0.0049006464
149	0x3d21376a	0.039359488
150	0x3b27ee9a	0.0025624395
151	0xbd11bfae	-0.03558319
152	0xbcfa8d14	-0.03058485
153	0xbcbf1ba1	-0.023328604
154	0x3d62a27c	0.05533074
155	0xbb8ddd6a	-0.004329373
156	0x3db47206	0.08810811
157	0x3d654748	0.055976182
158	0x3cc553b2	0.02408776
159	0x3dd9a253	0.10626664
160	0x3d15e891	0.036598746
161	0x3d618c15	0.055065233
162	0xbcd99e45	-0.026564727
163	0x3d4c50d8	0.049881786
164	0x3bf513e0	0.007479176
165	0x3b9a6a03	0.0047123446
166	0x3d6ea97d	0.058267105
167	0x3dbfbd2e	0.09362255
168	0xbc53ebb3	-0.012934613
169	0xbd950733	-0.07276764
170	0xbd87a67e	-0.06623553
171	0x3d1d0a7e	0.038340084
172	0xbd37f175	-0.044908006
173	0xbcbd2032	-0.023086641
174	0xbd805950	-0.06267035
175	0xbd7bc3d2	-0.061466046
176	0x3d4ba05e	0.049713485
177	0xbce6c028	-0.0281678
178	0xbc827de0	-0.015929163
179	0x3cec8aca	0.028874774
180	0x3d0e7925	0.0347835
181	0x3a10b33c	0.0005519872
182	0xbd5ce702	-0.053931244
183	0xbc045351	-0.008076505
184	0xbce4fa54	-0.027951397
185	0x3d13221c	0.0359212
186	0xbd765ed9	-0.060149048
187	0x3bb1814a	0.005417024
188	0xbc192d21	-0.0093491385
189	0x3b202dad	0.0024441287
190	0xbd17a502	-0.037022598
191	0xbb9aa4b5	-0.0047193416
192	0x3d2bbdf0	0.041929185
193	0x3ce7374f	0.028224615
194	0x3cd0a22a	0.02546795
195	0x3d7da545	0.06192519
196	0xbcf3c4eb	-0.029756984
197	0xbc16d30b	-0.00920559
198	0x3c684c4b	0.014178346
199	0x3d102586	0.035192035
200	0xbae510ee	-0.0017476359
201	0x3d6cf586	0.057851337
202	0x3d93e808	0.07221991
203	0x3d897256	0.06711261
204	0x3d9443d3	0.07239499
205	0x3cc21800	0.023693085
206	0xbda41f92	-0.08013834
207	0xbd4aa87b	-0.04947708
208	0xbd1035e9	-0.035207663
209	0xbba65c8d	-0.005076951
210	0xbc65bd4b	-0.014022182
211	0x3c145d0c	0.009055387
212	0x3d216d3c	0.039410815
213	0xbc1f538b	-0.009724508
214	0x3d292649	0.041296277
215	0xbda9caa3	-0.08290603
216	0xbc2142e3	-0.009842607
217	0xbd56667e	-0.052343838
218	0xbc82ef4b	-0.015983244
219	0xbd7c5ea7	-0.061613705
220	0x3d2b4e5c	0.041822776
221	0xbbd53ba6	-0.006507355
222	0xbba3a5df	-0.0049941386
223	0xbe3ef377	-0.18647562
224	0x3bd130dd	0.006383999
225	0xbb9a3543	-0.0047060563
226	0xbdeb8af2	-0.11501111
227	0xbd8a49b1	-0.06752337
228	0x3c657901	0.0140059
229	0xbd6610a7	-0.056168225
230	0x3d378c13	0.04481132
231	0xbcac4e57	-0.02103345
232	0x3c49d4ca	0.012318799
233	0xbc4f6f51	-0.012660817
234	0x3d25d3ca	0.04048518
235	0x3d848856	0.064713165
236	0x3cb1f52d	0.021723354
237	0xbb170599	-0.0023044108
238	0x3d8ef5bf	0.06980466
239	0xbcc7e5f9	-0.024401652
240	0x3c814328	0.015779093
241	0x3be9f98a	0.007140343
242	0xbc4bc807	-0.012437827
243	0x3bccf762	0.0062550763
244	0x3d984b7a	0.07436271
245	0x3b96be61	0.0046003317
246	0xbc8133de	-0.015771803
247	0xbbc3b3d2	-0.005972364
248	0x3b98e93f	0.004666477
249	0xbd050137	-0.03247186
250	0x3c07a48b	0.008278976
251	0xbd7ac117	-0.0612193
252	0xbbe250b1	-0.006906592
253	0xbd243a09	-0.04009441
254	0x3d2c047f	0.041996475
255	0x3c22eb00	0.009943724

fc1.bias f4 [64]
0	0xba3945f6	-0.0007067615
1	0xbd4ec98f	-0.05048519
2	0xbd1a43af	-0.037662204
3	0xbcec1433	-0.028818225
4	0xbcd8f2a1	-0.026482882
5	0xbd45600e	-0.048187308
6	0xbc003c07	-0.007826812
7	0xbacafee3	-0.0015487339
8	0xbcfe5639	-0.031046974
9	0xbd989faf	-0.07452332
10	0x3bae4f21	0.0053194915
11	0x3cc87ceb	0.024473628
12	0x3bf60b93	0.007508704
13	0xbd226610	-0.039648116
14	0xbd618e6d	-0.05506747
15	0xbcc4d3ec	-0.024026833
16	0xbd4a7d1b	-0.049435716
17	0xbce70b94	-0.028203763
18	0xbceef01f	-0.029167233
19	0xbcb15920	-0.021648943
20	0xbd214ab5	-0.039377887
21	0xbd24a027	-0.040191796
22	0xbc210e36	-0.009830048
23	0x3cd1959f	0.02558404
24	0xbd04b1c8	-0.032396108
25	0x3bb71ac1	0.005587906
26	0xbcc6bb39	-0.024259197
27	0xbc1e2535	-0.009652426
28	0xbc57e6fa	-0.013177628
29	0xbc8c4474	-0.017122485
30	0xbd141ce5	-0.03616037
31	0xbc9a71e9	-0.018853145
32	0xbce53bb4	-0.02798257
33	0x3ccafcac	0.024778686
34	0xbc8d020e	-0.017212894
35	0xbc251eb3	-0.01007812
36	0xbccec436	-0.025240045
37	0xbd3b2a44	-0.045694605
38	0x3b0aed61	0.0021198618
39	0xbd00d70e	-0.031455092
40	0xbbfa005a	-0.0076294364
41	0xbd274939	-0.040841315
42	0xbaac7b55	-0.0013159314
43	0xbd62d499	-0.05537853
44	0x3a8537d7	0.0010163736
45	0x3c85658d	0.016283775
46	0x3c94326a	0.018090446
47	0xbd025ac2	-0.031824835
48	0xbc4f26d1	-0.012643532
49	0xbc7df55d	-0.015500394
50	0xbd5eaeba	-0.05436585
51	0xbd55e7d1	-0.05222303
52	0x3ac83517	0.0015274611
53	0xbbe8d8d2	-0.007105925
54	0x3c08672b	0.008325378
55	0xbb282bba	-0.0025660829
56	0xbc95ef93	-0.018302714
57	0xbd7c845c	-0.061649665
58	0x3a96a78e	0.0011494027
59	0x3af0b1be	0.0018363518
60	0x3c3d6eab	0.01156203
61	0xbb89afeb	-0.0042018793
62	0x3ceee9e6	0.029164266
63	0x3aadb2f9	0.001325219

fc2.weight f4 [7, 64]
0	0xbcc66e42	-0.024222497
1	0x3db8ba11	0.09019864
2	0x3d4a979c	0.049460992
3	0xbd60ccfd	-0.054882992
4	0xbed2226a	-0.4104188
5	0xbd8f8a42	-0.070087925
6	0x3cb0556c	0.021525107
7	0x3c5400de	0.01293966
8	0x3ee0c520	0.43900394
9	0x3e8ab7e2	0.27093416
10	0x3bb9b51d	0.0056673423
11	0xbe5764b5	-0.2103451
12	0xbd673a0b	-0.05645184
13	0xbdbd96c5	-0.09257273
14	0x3db1c632	0.08680381
15	0xbf03616e	-0.5132054
16	0x3c1fe66f	0.0097595295
17	0xbc19e531	-0.009393022
18	0x3f2e0b15	0.6798566
19	0x3d77515c	0.060380325
20	0xbd93a4a5	-0.07209138
21	0x3f3de62a	0.7417933
22	0x3ee04727	0.43804285
23	0xbe47bfa6	-0.19506702
24	0xbe10de86	-0.14147386
25	0x3cc277ed	0.023738826
26	0x3e21ea34	0.15811998
27	0xbebf18ca	-0.373236
28	0xbef7c7c8	-0.48394608
29	0xbe746928	-0.23868239
30	0xbdd1f9f8	-0.10252756
31	0xbf5e1eab	-0.86765546
32	0x3e2907a1	0.16506816
33	0xbdd72870	-0.1050576
34	0x3f1f370c	0.6219337
35	0xbee01d9e	-0.43772596
36	0x3e4275ec	0.18990296
37	0x3f037df2	0.5136405
38	0xbd0ad63e	-0.033895724
39	0xbe12ca65	-0.1433502
40	0x3e94d023	0.29065046
41	0xbec89d7a	-0.39182645
42	0xbe6bf819	-0.2304386
43	0xbe41178d	-0.1885664
44	0x3e95b8dc	0.292426
45	0xbe8ba9c6	-0.27277964
46	0x3d9c7b04	0.07640651
47	0xbe82ffff	-0.25585935
48	0xbe99eaa1	-0.3006182
49	0xbccd2336	-0.025041204
50	0x3e042a51	0.12906767
51	0x3d606c34	0.05479069
52	0xbe866547	-0.26249143
53	0xbe6acdb3	-0.2293003
54	0xbea89e3f	-0.32933232
55	0x3e467c1b	0.1938328
56	0xbed748e6	-0.42047805
57	0x3eb4bed7	0.3530185
58	0xbd597691	-0.05309159
59	0xbea779b8	-0.32710052
60	0xbcaed9af	-0.021344034
61	0xbe053d28	-0.1301161
62	0xbe7eeaba	-0.24894229
63	0xbdc8b05b	-0.09799262
64	0xbe0579c6	-0.13034734
65	0x3f14d48a	0.5813681
66	0xbeb69e92	-0.35667855
67	0xbd048597	-0.032353964
68	0xbea019d1	-0.31269696
69	0x3f2f85d8	0.68563604
70	0xbe07bafc	-0.13254923
71	0x3e40dc87	0.18834125
72	0x3e1bd017	0.15216099
73	0x3e6068cf	0.21914981
74	0xbe2151f1	-0.15753914
75	0x3cb8ff06	0.022582542
76	0xbeab7df0	-0.3349452
77	0xbe753680	-0.23946571
78	0x3dc0ddd4	0.0941731
79	0x3e19df28	0.15026534
80	0x3e883301	0.26601413
81	0xbe6e96ee	-0.23299763
82	0x3ecbb1ad	0.39783993
83	0x3f148984	0.5802233
84	0xbd27ac42	-0.040935762
85	0xbf434626	-0.76278913
86	0x3d2c741d	0.04210292
87	0xbdad4d93	-0.08462062
88	0x3df659ea	0.120288685
89	0x3dc66a4d	0.09688244
90	0x3ebb18d7	0.3654239
91	0x3c4e9552	0.012608843
92	0x3d976a88	0.07393366
93	0x3e31de1d	0.17369886
94	0x3dcae885	0.09907631
95	0xbe6f391d	-0.2336163
96	0x3ef66e63	0.48131093
97	0xbe1a71c1	-0.15082456
98	0x3e158f18	0.14605367
99	0x3ddf3356	0.108984634
100	0xbdf187f8	-0.11793512
101	0x3dfe662b	0.12421831
102	0xbe3d8a30	-0.18509746
103	0xbe09e46b	-0.13466041
104	0x3dae4980	0.08510113
105	0x3ee078ea	0.4384225
106	0x3ea47ba9	0.32125595
107	0x3f099773	0.5374672
108	0x3e62bcb6	0.221423
109	0xbd599d1c	-0.053128347
110	0xbd7fe3b0	-0.062473
111	0x3d72820f	0.059206065
112	0x3f326e37	0.69699425
113	0xbcae368e	-0.021266248
114	0x3f29c5bf	0.6631736
115	0x3e277bcb	0.16355817
116	0xbddf7edf	-0.109128706
117	0xbe091ce6	-0.1338993
118	0xbd8f87aa	-0.07008298
119	0x3e486091	0.19568087
120	0x3df04a71	0.117329486
121	0x3e9d71d0	0.30750895
122	0x3cfaeb56	0.030629795
123	0xbb407b0f	-0.0029370224
124	0x3da79bc0	0.08184004
125	0xbe7bbe73	-0.2458437
126	0xbe39618c	-0.18103617
127	0xbdea74ba	-0.11448045
128	0xbe4e7ec7	-0.20165549
129	0x3e9a6e6d	0.30162373
130	0xbe3f121b	-0.1865925
131	0x3be36506	0.006939533
132	0x3f56298f	0.83657163
133	0xbee6d120	-0.45081425
134	0xbc93c848	-0.018039837
135	0x3e5abba2	0.21360639
136	0x3f068168	0.5254121
137	0x3e7a08ed	0.24417467
138	0xbd90d402	-0.07071687
139	0xbda5bd6f	-0.08092772
140	0xbe79fdf7	-0.24413286
141	0xbee85240	-0.45375252
142	0x3f1725a0	0.59041786
143	0xbbb3844e	-0.0054784184
144	0x3eebc91e	0.46051878
145	0xbec62697	-0.38701317
146	0xbec0b30d	-0.37636605
147	0x3d6bba8c	0.05755095
148	0x3f2359ee	0.63809097
149	0x3f045aa3	0.517008
150	0x3d514145	0.051087637
151	0xbe4c5a5d	-0.19956346
152	0x3ec8a33e	0.39187044
153	0x3da0be23	0.07848766
154	0x3e8a6ce7	0.2703621
155	0xbed16a18	-0.40901256
156	0x3f395b1a	0.72404635
157	0x3f016ba8	0.50554895
158	0x3ec208c3	0.3789731
159	0xbe20c2a1	-0.15699245
160	0x3e3f4971	0.1868036
161	0xbe12fc02	-0.14353946
162	0x3e111c91	0.14171053
163	0x3dcfcfbd	0.10147045
164	0xbd93a9eb	-0.07210144
165	0xbe63f2d7	-0.22260605
166	0xbe41a459	-0.1891035
167	0x3f249ff7	0.64306587
168	0x3ce844d7	0.028353138
169	0xbeca09be	-0.39460558
170	0xbe3695b4	-0.17830545
171	0x3eff72fb	0.4989241
172	0x3e88222e	0.26588577
173	0x3e6363f5	0.222061
174	0x3dfb7460	0.12278056
175	0x3daf6e94	0.08566013
176	0x3f31bf2a	0.6943232
177	0xbed62bec	-0.41830385
178	0x3ee66c21	0.4500437
179	0x3ea91754	0.3302561
180	0xbe01a789	-0.12661566
181	0x3e6ce8ed	0.23135729
182	0x3e3b5799	0.18295135
183	0x3e1a9871	0.15097214
184	0xbde8ecb2	-0.11373271
185	0xbefb55b1	-0.49088815
186	0xbe5b3684	-0.21407515
187	0xbe03a207	-0.12854777
188	0xbddbc20a	-0.107303694
189	0xbe003718	-0.12521017
190	0xbcff0cbc	-0.031134002
191	0xbe869bdd	-0.2629079
192	0xbe3972c6	-0.18110189
193	0x3ddab667	0.10679322
194	0xbea7a0e2	-0.3273993
195	0x3f0ee000	0.55810547
196	0x3ec09d35	0.3761994
197	0x3ed7ff17	0.42186806
198	0x3e8c7181	0.27430347
199	0xbe36be15	-0.17845948
200	0x3f0ed22b	0.5578944
201	0x3e6bc52f	0.23024438
202	0xbdb8a294	-0.09015384
203	0xbd9d8a23	-0.07692363
204	0xbe9c8ed8	-0.3057773
205	0x3eabf22a	0.33583194
206	0x3ee7ace5	0.45249096
207	0x3e57b33b	0.21064465
208	0xbc24a605	-0.010049348
209	0xbeaba3a3	-0.33523282
210	0x3eb71076	0.35754746
211	0x3acbb0b4	0.0015540333
212	0x3d6298c0	0.055321455
213	0xbbed7081	-0.0072460775
214	0xbe132932	-0.14371184
215	0xbe1ccfd4	-0.15313655
216	0x3e5dd57d	0.2166347
217	0xbd48d5dc	-0.049032077
218	0xbdf87dff	-0.12133407
219	0xbebaf60d	-0.36515847
220	0x3dbf7ff3	0.09350576
221	0x3d2271d7	0.039659347
222	0x3ef530d9	0.4788883
223	0xbd9060c2	-0.07049705
224	0x3e5ade64	0.21373898
225	0xbdeb6ab9	-0.11494965
226	0x3e08c416	0.13356051
227	0x3d903ce2	0.070428625
228	0xbe1e94e2	-0.15486482
229	0xbe93383d	-0.28753844
230	0x3ddd6b3d	0.1081147
231	0xbcc047f0	-0.023471802
232	0x3e54f1c7	0.20795356
233	0xbd9d18bf	-0.076707356
234	0x3e5ae979	0.21378125
235	0x3eac5af7	0.3366315
236	0xbd20d911	-0.03926951
237	0xbe506365	-0.20350416
238	0x3e32fcde	0.17479274
239	0x3d8ef26f	0.06979834
240	0x3e3f89ec	0.18704957
241	0xbe1aaac4	-0.15104204
242	0x3dae7057	0.08517521
243	0x3e8e95d7	0.27848694
244	0xbdecf9e3	-0.115710996
245	0x3d8ce7c5	0.06880144
246	0xbe8dd183	-0.27698907
247	0x3ea9a39f	0.33132645
248	0x3e5f9d53	0.21837358
249	0x3eb6a9be	0.35676378
250	0x3dbe2439	0.09284253
251	0x3dc5818d	0.096438505
252	0xbdfa16e9	-0.12211401
253	0xbe89d1a6	-0.26917762
254	0xbda585e5	-0.08082179
255	0xbe93fc2e	-0.28903335

fc2.bias f4 [7]
0	0xbd4368a4	-0.047707215
1	0x3c8b368d	0.016993785
2	0x3d054091	0.03253228
3	0xbc5bd734	-0.013418008
4	0x3dc42859	0.09578008
5	0xbcbe7e08	-0.023253456
6	0x3be29cae	0.0069156503
